Module1-Pytorch基本使用说明和LinearRegression/models/model.pth (torch, 25823 bytes, 3 tensors)

linear1.weight f4 [64, 93]
00000000: e95e 8b3d 79dc 683c 5e2d c7bb b967 e1bb
00000010: 4e7a 473d f3bf af3d c680 4a3d f990 79bd
00000020: 23fc e13d e5f7 ccbc d089 e43d a97c d23d
00000030: 9ba2 46bd c6ec 7f3c 17d5 3c3d 6cb2 49bb
00000040: 1ad6 583d 4b79 dfb9 a510 b93d e354 a33d
00000050: 844a ae3d b537 043e f0f4 11bc ffdf a0bb
00000060: ddad a9bd 22cb 9d3d e4f4 abbc d1ec 173d
00000070: d2de 1dbd 6316 8bbd 3757 5b3d 21f1 683d
00000080: 6aa5 92bd 291c a6bd 2944 cebb 63ad 0abd
00000090: c444 073e 1f62 a63c 8cda 0ebb 1097 893c
000000a0: 3c61 efbb 70c1 2c3d 050b 89bd 0eba ddbd
000000b0: b94b 90bd 3228 413c ee66 0738 0a94 a23d
000000c0: e091 52bd 2451 b2bc 813a febd 4bd3 3fbd
000000d0: 707f b1b9 58b0 433d af5b a83c 4047 a4bd
000000e0: 6c84 bebc b276 ba3d dd82 14bd d7a2 80bd
000000f0: 0d2f 7cbd d538 f1bd 2aba b4bc 5f05 28bb
00000100: da40 b23d 7f1d 72bd 3d07 c23d d771 95bd
00000110: 0243 993d 8318 e2bd b034 813d d9f6 7dbd
00000120: dc22 e03c 70c8 8d3d 0b06 80bd c161 fa3c
00000130: 2a39 933d 38a0 acbd 6709 a4bc d2bb f3bc
00000140: fa56 84ba 7b9a 6bbd 85d4 67bd 3b5c 92bd
00000150: e21e 193d 7ac2 f839 0256 9abd bda4 52bc
00000160: 747d a53c dc1f bbbd 4673 8fbc f880 af3d
00000170: 8e9f 0e3d 50fb 89bd de2d 9cbd e61d df3c
00000180: 45d1 7abd b624 403d da9e 10bd a50d 773d
00000190: 4b4d 87bd 08a3 90bd 9d0a adbd 3e5a 63bd
000001a0: a371 46bd 9625 313c 55a8 d63d de7b 803d
000001b0: e280 04bd 3c21 f1bc 58af 413c 3966 f8bc
000001c0: d204 a2bc e9f5 9d3d 4462 033e 7b35 e8bb
000001d0: 075b 9d3d 2544 a63d a3d2 aa3d a83d fe3c
000001e0: c8a2 ea3d d008 ba3b 8494 09bc e519 09bd
000001f0: b90f 5abd 6559 c7bd ee64 c0bc c159 933d
00000200: ebf1 9e3d 03b2 5c3c 770b d6bd 5dae 63bb
00000210: c3c9 853c 8cb8 9d3d 50b0 663d c5e9 0a3d
00000220: 21be 013d e039 55bc 9912 07be 9d0f 083d
00000230: ba58 bc3d f28f 9ebc a0f6 2f3c 2809 c13c
00000240: 57e6 3cbd 5abf 0abd a673 bfbd 8a34 75ba
00000250: 8a9e a5bd 6ea7 003d e4f5 e73d 144e bc3d
00000260: a3cf 1cbb 3675 5fbc e67e c13d 70d1 a63c
00000270: d8b2 96bd da30 e5bc e3fb f7ba 04b2 793d
00000280: 740f a7bd 88a8 763d d1a4 0dbe 4ee9 c3bc
00000290: 539f 8e3c 38ce 873d 0954 e2bd 0ce6 543d
000002a0: 1f9f 0c3e 956c 8ebd a6b7 39bd d451 153d
000002b0: 6769 763c 1d66 2e3d 1537 ddbd 23f3 723d
000002c0: 82cf 88ba c7bd 3d3d 2d0c 023e 286d 4c3d
000002d0: b9a1 063d d7b4 dabc b4ca 26bd 8547 6abc
000002e0: cb95 fcbb 54a1 a4bd ba08 9bbd 883d 9fbd
000002f0: bef4 46bd 29e7 a5bd 3de1 82bd d6ce 073e
00000300: 87ca b73d 6375 6e3d e963 6a3d 03ad 5b3c
00000310: 9767 76bd 5d3c 62bc 8c24 ca3c 95ff 6fbd
00000320: 7c62 033d dbd3 e63d c51d 7f3d 745d dcbd
00000330: 2db8 253d f4cd 493d 7a38 693c c40a 023e
00000340: 09e4 f73d 7dab e7bc a1d5 b1bb 875d 923d
00000350: b969 09be 793e a13d 93e1 d23c 3478 5b3d
00000360: c4c3 023d 868f 913d dc44 403c 0477 773d
00000370: 54b7 90bd f85a b3bd 6e5d 12bd 3470 90bd
00000380: 0bc7 a23c 72d5 a33d df35 ed3b 1b97 cfbd
00000390: 64d4 fdbc 1192 b6bd a4e3 93bd c72e 84bd
000003a0: 291c 203d 3556 9f3d 1b99 bbbd dbb4 27bc
000003b0: a99f 3fbd da5c ccbb c431 413d a073 81bd
000003c0: 64e3 d3bb 5fc8 b6bd 2d33 4b3d 0196 353c
000003d0: 95ab 4dbd fc02 023d e99f ae3a 6a25 58bd
000003e0: d85b 2ebd a4a6 32bd bb67 a23c 73c0 023d
000003f0: 6b79 fabd 8c79 acbd 0146 8dbd 9cf4 1f3d
0.06805212 0.014212721 -0.0060784062 -0.00687882 0.048700623 0.08581533 0.049439214 -0.060929272
0.110344194 -0.02502055 0.11159098 0.10277683 -0.048494916 0.015620416 0.046101656 -0.0030776514
0.05293856 -0.00042624245 0.09036378 0.07975175 0.085103065 0.12911876 -0.008908495 -0.004909515
-0.08285115 0.0770476 -0.020990796 0.03709108 -0.038542576 -0.06791379 0.05354997 0.056870583
-0.071604565 -0.0811084 -0.0062947464 -0.03385676 0.13209826 0.02031046 -0.0021797745 0.016795665
-0.0073052924 0.042176664 -0.06691555 -0.10826503 -0.07045693 0.011789368 3.228237e-05 0.079383925
-0.05140865 -0.021767206 -0.124135025 -0.046832364 -0.0003385502 0.047775596 0.02055153 -0.08021402
-0.023256503 0.091046706 -0.036257613 -0.06281059 -0.06156831 -0.11778418 -0.022061426 -0.0025637967
0.08703776 -0.05911016 0.09474037 -0.07297104 0.07483484 -0.110398315 0.063088775 -0.06200299
0.027360372 0.06922996 -0.062511526 0.03056419 0.071886376 -0.08428997 -0.020024015 -0.029752646
-0.0010096722 -0.05752037 -0.05659916 -0.07146498 0.037382968 0.00047447142 -0.07535936 -0.0128566595
0.020201422 -0.09136936 -0.017511021 0.08569521 0.034820132 -0.06737387 -0.07625936 0.027235936
-0.06123473 0.04691001 -0.035307743 0.060315747 -0.06606539 -0.07062346 -0.0844929 -0.055505984
-0.048448216 0.010812184 0.104813255 0.06273626 -0.032349475 -0.029434793 0.01182159 -0.030322181
-0.01977769 0.07712919 0.12830454 -0.0070864535 0.07683378 0.08118466 0.08340957 0.03103526
0.11456829 0.00567732 -0.008397225 -0.03347196 -0.05323765 -0.097338475 -0.023485627 0.071948536
0.07760986 0.013470176 -0.104514055 -0.003474138 0.016331559 0.07701215 0.05632049 0.033914346
0.03167546 -0.013014287 -0.13190688 0.033218015 0.09196611 -0.019355748 0.010739952 0.023563936
-0.046118107 -0.033873893 -0.0934823 -0.0009353837 -0.080868796 0.031409673 0.11326197 0.0919458
-0.0023927472 -0.013638785 0.09448032 0.02036354 -0.073583305 -0.027977396 -0.0018919673 0.060960785
-0.08157244 0.060219318 -0.13832404 -0.02391496 0.017409956 0.0663113 -0.11051185 0.051977202
0.13732575 -0.06954304 -0.045341156 0.03645499 0.015039778 0.04257785 -0.10801522 0.059313904
-0.0010437819 0.046323564 0.12699957 0.049908787 0.032869074 -0.02669756 -0.040720657 -0.014299278
-0.0077082864 -0.080385834 -0.07570024 -0.07775408 -0.048573248 -0.08100731 -0.06390617 0.13262495
0.08974176 0.058217417 0.057224188 0.013407948 -0.060157385 -0.013808337 0.02467563 -0.05859335
0.032076344 0.11270877 0.06228425 -0.10760012 0.040458847 0.049268678 0.0142346565 0.1269942
0.12104041 -0.028280014 -0.005427078 0.07146745 -0.13419236 0.07873244 0.025742328 0.05358143
0.031924978 0.07107453 0.011735167 0.060416237 -0.07066217 -0.08757585 -0.035733633 -0.07052651
0.019870302 0.07999696 0.007239088 -0.10136243 -0.030985065 -0.08914579 -0.072211534 -0.064542346
0.039089356 0.077801146 -0.09160062 -0.01023599 -0.046783123 -0.0062366547 0.0471666 -0.06320882
-0.006466316 -0.089249365 0.049609352 0.011083127 -0.05021246 0.031741127 0.0013322803 -0.052770056
-0.042568058 -0.043615952 0.019824853 0.031921815 -0.1223019 -0.08421621 -0.06898118 0.039051637

linear1.bias f4 [64]
00000000: 1f87 223f 483b a93e 9a1c 3e3f 5d07 bfbc
00000010: 258b efbd 8f2b 1c3e 688f da3c 017a c4bc
00000020: bb36 d23e b57f 183f 5a8d a63b 7bf1 5c3f
00000030: 072f 7d3e af8c 4f3f 643f 28be 6d74 593f
00000040: 9951 c23e 49ee 0a3f 5782 f0bd 05eb 713e
00000050: f984 ee3e 23c5 0d3f 4412 b3bd 5783 03bd
00000060: f5e3 243d c80c ff3e e697 ee3e 1ef4 1a3f
00000070: 8b2a 463e e3a5 4c3e dac4 e13e cf86 443f
00000080: 4982 2b3f 0b52 003f 5451 8b3e d60c 0bbe
00000090: 348b 3abd 201c 2e3f 1230 493f 56b4 843f
000000a0: c860 21be 39aa 263e e80e c0bd bf06 83bd
000000b0: 02fb f33e 663d 9c3d dacd 3c3e dbb7 493e
000000c0: b873 1d3f 4426 f83e af45 ed3e 6c5a df3e
000000d0: acd9 573e eac1 e63e 1123 173f a35a 2c3f
000000e0: 181d aa3e ede0 5ebd 3577 463f 4c62 1c3f
000000f0: b98b c83e 5d64 c43e c85c 13be 71ed e93c
0.6348743 0.3305304 0.7426239 -0.02331894 -0.116964616 0.15250991 0.02667971 -0.023983957
0.4105738 0.59569865 0.0050827684 0.8630597 0.24724971 0.8107404 -0.16430432 0.84943277
0.3795288 0.54269844 -0.1174361 0.23624809 0.46585825 0.5537893 -0.08743718 -0.032107677
0.04025646 0.4981444 0.46600264 0.60528743 0.19352166 0.19985156 0.44095498 0.767682
0.66995674 0.5012519 0.27210486 -0.13579115 -0.04554291 0.68011665 0.78588974 1.0367534
-0.15759575 0.16275872 -0.09377843 -0.06397771 0.4765244 0.07628898 0.18437901 0.19699042
0.615047 0.48466694 0.46342227 0.43623674 0.21079129 0.4506982 0.5903788 0.673258
0.33225322 -0.054413725 0.77525645 0.6108749 0.391691 0.3835782 -0.14390862 0.028555604

linear2.weight f4 [1, 64]
00000000: cb99 f63e e768 5f3e 9a2e 2b3f 9f74 d13d
00000010: 118a 8f3d 9980 133e fbe7 1c3e 2ec6 c63d
00000020: 1d04 fc3e 4f97 103f 5ae7 ee3d d0bd 423f
00000030: 9534 7f3e a07c 213f 721f 2b3d 83c6 333f
00000040: ab5a c93e 1971 d73e db81 013e eea3 c73d
00000050: 9dd5 db3e 8144 0b3f a7ea d23d e7bb 283e
00000060: 5251 003e e484 d43e 4d9d 923e d872 e13e
00000070: 96cc 9a3e 6d76 5f3e c64b c43e 0889 2b3f
00000080: 0228 193f 16a9 e13e da8b 903e e0dc bf3d
00000090: e1c9 d83d 3d49 283f 8fd1 293f 9243 6f3f
000000a0: e001 ab3d 14a1 343e 2436 c73d 4e99 d83d
000000b0: b1aa f53e b10a 973d 2a6f 553e 10e9 103e
000000c0: 3517 063f 0ec0 c73e c5dc 763e d8c3 803e
000000d0: 5532 a13e a581 f43e 4691 fb3e eeb5 193f
000000e0: 5810 bc3e e771 f23d 7ee5 2d3f c258 1b3f
000000f0: 9987 c73e 6bda ac3e fcd0 263e b19d 883d
0.4816421 0.21817361 0.66867983 0.10227322 0.07008756 0.14404525 0.15322869 0.097057685
0.49221888 0.5648088 0.116652206 0.7607088 0.24922402 0.6308079 0.041778035 0.7022478
0.39326987 0.42078474 0.12647192 0.09748064 0.42936411 0.54401404 0.10298663 0.16477929
0.12531021 0.41507638 0.28635636 0.4403293 0.30234212 0.2182252 0.3833906 0.6700597
0.5982667 0.44074315 0.28231698 0.093683004 0.1058538 0.6573675 0.66335386 0.9346248
0.08349967 0.17639571 0.097271234 0.105761155 0.4798179 0.07375086 0.20843187 0.14151406
0.5237916 0.39013714 0.24107654 0.25149417 0.31483713 0.4775516 0.49134272 0.6004323
0.3673122 0.118381314 0.679283 0.6068231 0.3897064 0.3376039 0.16290659 0.06670702
