Module8-AutoEncoder/best_model_cnn.pt (torch, 788213 bytes, 16 tensors)

weight f4 [12, 3, 4, 4]
0	0xbdabf369	-0.08396036
1	0xbdf2eaeb	-0.11861213
2	0x3e0e8e06	0.13921365
3	0x3d6b7819	0.05748758
4	0x3d49334c	0.049121186
5	0x3e03b6ac	0.12862653
6	0xbd154b09	-0.036448512
7	0x3ddcee6d	0.107876636
8	0x3df755a6	0.12076883
9	0xbdc98e10	-0.098415494
10	0xbdb22c15	-0.08699814
11	0xbe0b3a2c	-0.1359641
12	0xbd5f9da4	-0.054593697
13	0xbd5f3252	-0.05449135
14	0x3e26528e	0.1624243
15	0xbdb275b7	-0.087138586
16	0xbdf8ebde	-0.12154363
17	0x3dab6caf	0.08370339
18	0x3e1ebd41	0.15501882
19	0xbd28f772	-0.041251607
20	0xbbf47561	-0.0074602817
21	0x3db7ec1a	0.0898058
22	0x3d2cc023	0.042175423
23	0xbdffcdff	-0.124904625
24	0x3e075360	0.13215399
25	0x3d0edb9a	0.034877397
26	0x3a2f24c9	0.00066812016
27	0x3dda8e36	0.10671656
28	0x3e078b41	0.13236715
29	0xbaa9b29e	-0.0012946909
30	0xbb7bc200	-0.0038415194
31	0x3dd27525	0.1027625
32	0x3d5d1829	0.05397812
33	0x3e24a668	0.16079104
34	0xbd476ca8	-0.048687607
35	0xbd1b7c84	-0.037960544
36	0x3d5bc55d	0.053655017
37	0x3df7e10b	0.121034704
38	0x3e3da7fa	0.18521109
39	0x3dca7577	0.09885686
40	0x3accdef1	0.0015630407
41	0x3e42261d	0.18959852
42	0xbd20798f	-0.039178427
43	0x3daaf6ad	0.08347831
44	0x3e234f8e	0.15948316
45	0xbd79429a	-0.06085453
46	0xbc0ca5d0	-0.008584455
47	0x3e246297	0.16053234
48	0x3e1eb736	0.15499577
49	0x3e3129e5	0.17301138
50	0xbd406388	-0.04696992
51	0x3e15bd87	0.1462308
52	0x3cd0eb6c	0.025502883
53	0x3e0809c2	0.13284972
54	0x3cb61736	0.022227865
55	0xbdef98d4	-0.116990715
56	0xbda6110c	-0.0810872
57	0xbcc027ff	-0.023456572
58	0x3dffbf5f	0.12487673
59	0x3e0efc96	0.13963541
60	0xbcb7c4e8	-0.02243276
61	0x3cf67ccb	0.030088803
62	0xbcb3a5fa	-0.02192973
63	0x3d3c5425	0.045978684
64	0x3d7ce86b	0.06174509
65	0x3bb1c24a	0.0054247724
66	0x3e0eb900	0.1393776
67	0xbadac5dd	-0.0016691048
68	0x3e1dffaf	0.15429567
69	0x3e255af3	0.16147976
70	0x3e04c15a	0.12964383
71	0x3d47c2ed	0.04876988
72	0x3caa6185	0.020798454
73	0xbdb3bfc4	-0.08776811
74	0xbd594102	-0.053040512
75	0x3d88e1fe	0.066837296
76	0x3e2c1a7b	0.16806976
77	0x3d63e5f3	0.05563922
78	0xbd54ec61	-0.05198324
79	0x3df63474	0.120217234
80	0x3cf3e390	0.029771596
81	0xbd494660	-0.04913938
82	0x3ca57761	0.020198526
83	0xbd9cc056	-0.07653873
84	0x3e3461fb	0.17615502
85	0x3e291139	0.16510476
86	0xbc3d0457	-0.011536679
87	0x3e2471a0	0.1605897
88	0x3e1fb403	0.15596013
89	0x3da3f496	0.080056354
90	0xbd30dcf1	-0.043179456
91	0x3dfb33fd	0.12265775
92	0xbccbef08	-0.024894252
93	0xbd854b9e	-0.065085635
94	0xbd85a25e	-0.0652511
95	0x3d00c715	0.03143986
96	0x3ca5781d	0.020198876
97	0x3e13257c	0.14369768
98	0x3e38fea9	0.18065895
99	0x3e009551	0.1255696
100	0x3e36902c	0.17828435
101	0xba709ff0	-0.0009179106
102	0x3e614a03	0.2200089
103	0x3e18f80d	0.14938374
104	0x3e4dbd4b	0.20091741
105	0x3e5d76fe	0.21627423
106	0x3caba4bc	0.020952575
107	0x3e06f552	0.1317952
108	0xbd246fae	-0.04014557
109	0x3d08846d	0.033329416
110	0x3e6c7c80	0.23094368
111	0x3cb87fac	0.022521816
112	0xbbe3b8ce	-0.0069495207
113	0xbd5efcf0	-0.05444044
114	0x3e17cb8f	0.14823745
115	0xbcbab93b	-0.022793403
116	0x3ddc67af	0.107619636
117	0x3e129670	0.143152
118	0xbcb57924	-0.02215249
119	0xbdd0590a	-0.10173233
120	0x3dd0f038	0.10202068
121	0xbdad6e53	-0.08468308
122	0x3d97ceac	0.074124664
123	0x3d792074	0.060821965
124	0xbdcfc903	-0.10145762
125	0x3cc30683	0.023806816
126	0x3c54323d	0.012951431
127	0x3e21616d	0.15759821
128	0xbd46f6b1	-0.048575107
129	0x3cf94474	0.030428149
130	0xbdaa1bcc	-0.08306083
131	0xbdc6bba6	-0.0970376
132	0x3da7c7cc	0.08192405
133	0xbcb92ebe	-0.022605296
134	0x3ddc2e9e	0.10751079
135	0xbe11faaa	-0.14255777
136	0xbd98fbff	-0.074699394
137	0xbdd5f10e	-0.10446368
138	0xbc2a13db	-0.0103807105
139	0xbc5e5302	-0.013569595
140	0xbc9e4343	-0.019319182
141	0x3cf26840	0.029590726
142	0xbc9f2793	-0.01942805
143	0xbe0f6532	-0.14003447
144	0x3d8c2b02	0.068441406
145	0x3d7af943	0.06127287
146	0xbd59af94	-0.05314596
147	0xbd971b1f	-0.0737822
148	0xbe1809c4	-0.14847475
149	0xbc2af519	-0.010434412
150	0xbd15e744	-0.036597505
151	0x3dc9e8a2	0.09858824
152	0xbdf9dab7	-0.1219992
153	0xbe2a90e4	-0.16656834
154	0xbd35333e	-0.04423832
155	0x3d5312b2	0.0515315
156	0xbd55d803	-0.052207958
157	0x3dab383d	0.08360336
158	0xbd85e498	-0.065377414
159	0xbda93305	-0.08261684
160	0xbcbbf136	-0.022942167
161	0x3deb80a7	0.11499148
162	0x3caab558	0.020838425
163	0xbd0a97a2	-0.033836015
164	0xbe0bcddf	-0.13652752
165	0x3db75ac8	0.08952862
166	0xbe05ca48	-0.13065445
167	0xbe169ec5	-0.14709003
168	0xbe03e8f1	-0.12881829
169	0x3dccc2b9	0.09998078
170	0x3dc5659e	0.096385226
171	0xbd9235c5	-0.07139162
172	0xbc3b6f4a	-0.011440108
173	0x3cc736ca	0.024318118
174	0xbd99b4d6	-0.07505195
175	0x3dd8a6ac	0.10578665
176	0xbce26bac	-0.027639233
177	0xbd97023d	-0.07373474
178	0xbdd52567	-0.104075246
179	0xbcb54ce6	-0.022131395
180	0x3d0c1f3c	0.034209475
181	0xbc4d84fe	-0.012543915
182	0x3d6ecee9	0.058302794
183	0x3e08e4d4	0.13368541
184	0x3d8d8bd5	0.069114365
185	0xbda38e42	-0.07986118
186	0x3e04ce4b	0.1296932
187	0xbd658d8b	-0.05604319
188	0xbd487f4f	-0.048949536
189	0x3e297b1b	0.16550867
190	0xbd6d82d3	-0.05798609
191	0x3e1dce80	0.15410805
192	0xbde75ef6	-0.11297409
193	0xbdb00544	-0.08594754
194	0x3dbb8270	0.09155738
195	0x3dc907be	0.0981593
196	0xbd28f35b	-0.041247707
197	0xbd98d0a5	-0.07461671
198	0x3b8b17ee	0.004244796
199	0xbd5a7a88	-0.05333951
200	0xbdc0cde1	-0.09414268
201	0x3d743fb5	0.05963107
202	0xbd198833	-0.037483405
203	0x3dc0ba19	0.09410495
204	0xbd1b517b	-0.037919503
205	0x3e05fe4f	0.13085292
206	0x3c70f4c0	0.01470679
207	0x3d8e9a13	0.06962981
208	0xbd85ebaa	-0.0653909
209	0xbb3904ad	-0.0028231547
210	0x3d901259	0.070347495
211	0xbe017358	-0.12641656
212	0xbd8f71d3	-0.07004132
213	0xbd1758ab	-0.036949795
214	0xbbf60f60	-0.007509157
215	0xbd74f39a	-0.05980263
216	0x3d6fc663	0.058538806
217	0x3ca4f47a	0.020136107
218	0xbdfa2b81	-0.12215329
219	0x3e12193a	0.14267436
220	0x3cb16a20	0.02165705
221	0x3d3ff51b	0.04686461
222	0x3d5894ea	0.05287639
223	0x3db2ba46	0.08726935
224	0xbc92c292	-0.017915044
225	0xbd45d91d	-0.04830276
226	0xbdec3613	-0.11533751
227	0xbc9514f1	-0.018198462
228	0xbdea1117	-0.11429041
229	0x3d69ba26	0.05706229
230	0x3db8ae9e	0.090176806
231	0xbda39348	-0.07987076
232	0xbd8be26d	-0.06830297
233	0xbd8bc7b7	-0.06825202
234	0xbc2c873c	-0.010530289
235	0xbd889b1c	-0.0667021
236	0x3e00fdc4	0.12596804
237	0x3ccf0088	0.025268808
238	0xbc4ba4dd	-0.012429443
239	0x3e108bba	0.14115801
240	0x3db98458	0.09058446
241	0xbe09deb7	-0.13463865
242	0xba38689e	-0.0007034632
243	0xbd446fe9	-0.04795829
244	0x3dac2501	0.084054954
245	0x3d36ae61	0.044599894
246	0xbd29bcde	-0.041439883
247	0xbd3d8e79	-0.04627845
248	0x3c443154	0.011974651
249	0x3d19f355	0.037585575
250	0xbe19ad42	-0.15007499
251	0x3d733503	0.059376728
252	0x3da45230	0.080234885
253	0xbd7a57b3	-0.061118793
254	0xbdbba159	-0.09161634
255	0x3daf4cdf	0.08559584

bias f4 [12]
0	0x3d76acab	0.060223263
1	0xbd518ec8	-0.051161557
2	0x3ddb56cb	0.10709914
3	0xbd875317	-0.06607645
4	0x3e52b36d	0.20576258
5	0x3d812c3a	0.06307264
6	0xbd7d6475	-0.06186338
7	0xbdff4ed6	-0.12466209
8	0x3cb16927	0.021656586
9	0x3cd68fd8	0.026191637
10	0xbdb6b909	-0.089220114
11	0xbd02630e	-0.031832747

weight f4 [24, 12, 4, 4]
0	0x3d947a5f	0.07249903
1	0x3ccac066	0.024749946
2	0x3c3bf0f5	0.011471023
3	0x3d2269a6	0.039651535
4	0x3d9c423d	0.076298214
5	0xbd67f35f	-0.05662858
6	0xbc8e0bef	-0.017339675
7	0x3dba1672	0.09086312
8	0xbbf9c104	-0.007621886
9	0xbd39bbf3	-0.045345258
10	0x3b93c33e	0.0045093587
11	0xbd10bd79	-0.035336945
12	0xbd781c6d	-0.060573984
13	0xbc34cdef	-0.0110354265
14	0x3d5482d4	0.05188258
15	0x3db5844a	0.08863123
16	0x3cd6438e	0.02615526
17	0xbd2efc57	-0.04272112
18	0xbd4669c5	-0.048440713
19	0xbd39541b	-0.045246225
20	0x3dbdd126	0.092684075
21	0xbd1f38e4	-0.038872615
22	0x3d224f1c	0.039626226
23	0x3d53de06	0.05172541
24	0xbdb0f493	-0.08640399
25	0xbd84f68d	-0.06492338
26	0x3d4dcf94	0.05024679
27	0x3d4a07d2	0.049323864
28	0xbd5b29e6	-0.053506754
29	0xbd6de2fa	-0.05807779
30	0x3db32a6f	0.08748328
31	0x3d20ac0f	0.039226588
32	0x3d7605bb	0.06006406
33	0x3b7c6279	0.0038510843
34	0xbd900b8d	-0.07033453
35	0xbcbeea8a	-0.023305196
36	0x3d8d6c69	0.06905443
37	0x3d991312	0.074743405
38	0xbd6a7275	-0.05723806
39	0x3d25200d	0.04031377
40	0xbda7bc8e	-0.08190261
41	0xbd5e2e25	-0.054243226
42	0x3c10698a	0.008814225
43	0x3d4dc101	0.05023289
44	0xbd89d0f0	-0.06729305
45	0xbda2194a	-0.0791498
46	0x3d99183d	0.07475326
47	0xbb1a99c5	-0.002359019
48	0xbc73a4ab	-0.014870803
49	0xbd6decf3	-0.0580873
50	0xbd1a5337	-0.037677016
51	0x3d2bd697	0.041952696
52	0xbdd9fe0b	-0.10644158
53	0xbd036d18	-0.03208646
54	0xbbc6006d	-0.006042531
55	0x3d6ae590	0.057347834
56	0xbcc35cf1	-0.023848029
57	0x3d4e49ae	0.050363235
58	0x3d0f19d4	0.03493674
59	0x3cfb3492	0.030664716
60	0x3d9561da	0.07294054
61	0x3d0fb7df	0.035087463
62	0x3d3813b0	0.04494065
63	0x3ca35fb0	0.019943088
64	0x3d992583	0.07477858
65	0x3dc090d6	0.09402625
66	0x3d2cec9d	0.04221784
67	0x3dcf9732	0.1013626
68	0x3d5c271d	0.05374824
69	0x3b921b93	0.0044588535
70	0x3d52cab8	0.05146286
71	0x3e1bf51c	0.1523022
72	0xbbb861b1	-0.00562688
73	0x3cbe8602	0.02325726
74	0x3ca4c8f7	0.020115359
75	0x3d0a6c23	0.033794533
76	0xbc252ee8	-0.010081984
77	0x3e1df1c4	0.15424258
78	0x3e22dcfa	0.15904608
79	0x3ddce276	0.107853815
80	0xbda298d2	-0.079393044
81	0x3ce56cad	0.028005922
82	0x3c91b65a	0.017787147
83	0xbd665188	-0.056230098
84	0xbc8c9b5c	-0.017163925
85	0x3db102fb	0.086431466
86	0x3b949af9	0.0045350757
87	0x3cd44812	0.025913272
88	0x3d61597d	0.055016983
89	0x3d34cec7	0.04414251
90	0xbcb7a47b	-0.022417298
91	0x3d18f887	0.03734639
92	0x3d60a3ff	0.0548439
93	0x3c7eafa3	0.015544805
94	0x3dae18fc	0.08500859
95	0xbd90a9a2	-0.07063605
96	0x3d0f2f41	0.034957174
97	0x3d200f77	0.03907725
98	0xbbc7a516	-0.006092678
99	0xbd45d01d	-0.048294175
100	0xbdaf4fc0	-0.08560133
101	0x3bc8724d	0.0061171413
102	0xbd2ccd7d	-0.042188156
103	0xbc64b510	-0.013959184
104	0xbc8fb54b	-0.017542502
105	0x3dbaabad	0.09114776
106	0x3c50b238	0.012737803
107	0xbcf3e155	-0.029770533
108	0xbb833210	-0.0040037706
109	0xbc6a69ee	-0.014307482
110	0x3d2f0e08	0.04273799
111	0x3ae30564	0.0017320332
112	0x3c64ac18	0.013957046
113	0xbd024bc8	-0.031810552
114	0xbc2500d7	-0.010071001
115	0x3c87398f	0.016506938
116	0x3cbfbf8c	0.023406766
117	0x3c1ffd3e	0.0097649675
118	0x3d9aa2bf	0.075505726
119	0x3deda78a	0.11604221
120	0xbe01cbf2	-0.12675455
121	0xbe344a77	-0.17606531
122	0x3c29be84	0.010360364
123	0x3dcaade2	0.09896447
124	0xbdeba70f	-0.11506473
125	0xbdfeef84	-0.12448028
126	0x3ce8f558	0.028437302
127	0x3e4ed7fa	0.20199576
128	0xbd1266cb	-0.035742562
129	0xbd279de9	-0.04092208
130	0x3d759c72	0.05996365
131	0x3d53e18d	0.051728774
132	0x3a183a3b	0.0005807017
133	0x3ca14946	0.01968826
134	0xbd338999	-0.043832395
135	0xbd4ee64c	-0.050512597
136	0x3d3912a2	0.045183785
137	0x3d1dab8f	0.03849369
138	0x3cacc363	0.021089261
139	0xbd6d0197	-0.057862844
140	0x3d69c244	0.05707003
141	0x3d0c912e	0.03431814
142	0xbd09c7bb	-0.033637743
143	0xbb7b82e2	-0.0038377573
144	0x3d975c81	0.073906906
145	0xbc3cf4b1	-0.011532948
146	0x3d3d648b	0.046238463
147	0x3d1463b6	0.036227904
148	0x3dc1e3ee	0.09467302
149	0x3d1d57f9	0.038413975
150	0xbcb13583	-0.021631962
151	0x3d66926a	0.056291975
152	0xbbf908b0	-0.0075999126
153	0xbce1933f	-0.027536033
154	0x3cf24317	0.029573007
155	0xbd4679ab	-0.048455875
156	0xbc800eeb	-0.015632113
157	0x3d95f665	0.07322387
158	0xbd0b3c3b	-0.033992987
159	0xbdd51452	-0.104042664
160	0xbd8a67b6	-0.067580625
161	0xbd036061	-0.032074336
162	0x3c164cd4	0.009173591
163	0xbd86e69c	-0.06586954
164	0xbd75d168	-0.06001416
165	0xbd24e59c	-0.040258035
166	0xbd4ab51a	-0.04948912
167	0xbbdd3143	-0.006750257
168	0xbcc44083	-0.023956543
169	0xbcee0c45	-0.029058585
170	0xbd6c5512	-0.057698317
171	0xbd92203d	-0.07135055
172	0xbc8506b8	-0.016238555
173	0x3da639de	0.08116506
174	0x3d5a185e	0.053245895
175	0xbd1143fc	-0.035465226
176	0xbd1a5855	-0.037681896
177	0xbd3e3f46	-0.04644706
178	0x3be1c500	0.0068899393
179	0x3d1da217	0.03848466
180	0x3d1285c5	0.035772104
181	0xbc934f92	-0.017982278
182	0x3d5f4f36	0.0545189
183	0xbd61c4e4	-0.05511941
184	0x3d7f19b2	0.062280364
185	0x3e050a32	0.1299217
186	0x3c3f48eb	0.0116751
187	0xbcb715d5	-0.022349278
188	0x3d363745	0.044486303
189	0x3d61074b	0.054938596
190	0x3d7ee46b	0.062229555
191	0xbd88530f	-0.06656467
192	0xbd93c5e5	-0.0721548
193	0x3c4471b8	0.011990003
194	0x3d1e8c81	0.038708214
195	0xba8abf49	-0.0010585572
196	0xbcb7ec6c	-0.022451602
197	0xbd1ae38f	-0.037814673
198	0x3de6a774	0.11262408
199	0xbccf5b13	-0.025311982
200	0xbcca7346	-0.02471317
201	0xbc3b9390	-0.011448756
202	0x3dc894df	0.0979402
203	0x3ca369b2	0.01994786
204	0xbdd29a16	-0.10283296
205	0xbd1d99f3	-0.038476896
206	0xbd658912	-0.056038924
207	0x3cb9739d	0.022638137
208	0x3cd3bd76	0.025847178
209	0x3c6714e1	0.014104099
210	0x3d9ab9f5	0.07555
211	0xbd7d1107	-0.061783817
212	0xbd32b252	-0.04362709
213	0x3d1a62a8	0.037691742
214	0x3da8b347	0.082373194
215	0x3d8d2196	0.06891172
216	0x3d408f4c	0.04701166
217	0x3d6047e7	0.05475607
218	0x3deb53cb	0.114905916
219	0xbd01d7b5	-0.031699855
220	0xbd7ad0ef	-0.06123441
221	0xbce0175c	-0.027354889
222	0x3d17142d	0.036884475
223	0x3ceae1c3	0.028672105
224	0xbd7fd861	-0.062462214
225	0x3d835024	0.0641177
226	0x3d9754b0	0.073892
227	0x3d600375	0.054690797
228	0x3ce518c2	0.027965907
229	0x3d178d0a	0.03699974
230	0x3d947750	0.072493196
231	0xbd4714b8	-0.048603743
232	0x3d8b9b5a	0.0681674
233	0x3b72e7c3	0.003706441
234	0x3e023490	0.12715364
235	0xbca65235	-0.020302871
236	0xbdca080e	-0.098648176
237	0xbd8f2a5f	-0.069905035
238	0x3b1b49cf	0.0023695116
239	0xbce0c1b4	-0.027436115
240	0x3d905ee6	0.070493504
241	0x3d839f57	0.06426876
242	0xbc2eb590	-0.010663405
243	0x3d4c5125	0.049882073
244	0x3db27d71	0.08715332
245	0xbc2e4e9c	-0.010638859
246	0xbd5bc69b	-0.0536562
247	0xb9801669	-0.0002443076
248	0x3dc32ab6	0.09529631
249	0x3da30e70	0.07961738
250	0xbd0fc1b3	-0.035096835
251	0x3c2f3f78	0.0106962845
252	0x3d939d7f	0.07207774
253	0x3cae7ced	0.021299804
254	0x3ca33869	0.01992436
255	0xbd44fa39	-0.048090193

bias f4 [24]
0	0x3d90bccf	0.070672624
1	0x3c142789	0.009042629
2	0x3c988e10	0.018622428
3	0xbc6903bf	-0.014222085
4	0xbdd8c7ea	-0.105850056
5	0x3c07485a	0.008256996
6	0xbc8afb8f	-0.016965656
7	0xbd911323	-0.07083728
8	0x3d63f56f	0.055653986
9	0x3d8de959	0.06929273
10	0xbd69017e	-0.05688619
11	0x3d6108b2	0.054939933
12	0x3cb3bfba	0.021942008
13	0x3c78ead4	0.015192706
14	0x3dea6cf6	0.11446564
15	0xbd3ace8d	-0.04560714
16	0xbd4e792c	-0.050408527
17	0x3cfa3756	0.030543964
18	0x3baea5f5	0.005329842
19	0xbcdac75f	-0.026706396
20	0xbe093ae6	-0.13401374
21	0xbd378aac	-0.044809982
22	0xbd2fc0fb	-0.04290865
23	0x3dda3732	0.10655059

weight f4 [48, 24, 4, 4]
0	0xbcc30180	-0.023804426
1	0x3c2784f4	0.01022457
2	0xbd354b1c	-0.044261083
3	0xbcd14ded	-0.025549853
4	0xbd032dac	-0.032025978
5	0xbcee4b8e	-0.029088762
6	0x3d26301f	0.040573236
7	0x3cd5b588	0.026087537
8	0xbd36ade2	-0.04459942
9	0xbd4b91b9	-0.04969952
10	0x3d15a210	0.036531508
11	0xbd27cdd4	-0.040967777
12	0xbcb41fc3	-0.021987801
13	0x3cfc712a	0.03081568
14	0x3cac2de6	0.02101798
15	0x3c186299	0.009300851
16	0xbd07ee69	-0.03318635
17	0xbd1d789f	-0.03844511
18	0x3ac850ac	0.0015282831
19	0x3cae56fe	0.021281715
20	0xbd382c67	-0.04496422
21	0x3bf68a21	0.0075237905
22	0xbccb8130	-0.024841875
23	0x3cc3091f	0.02380806
24	0xbd31b0bb	-0.043381434
25	0xbd062fab	-0.032760303
26	0xbd0226e7	-0.03177538
27	0x3c586dd2	0.013209777
28	0x3cf30fd7	0.029670639
29	0xbd617f26	-0.0550529
30	0x3c77d998	0.015127562
31	0xbb5406fb	-0.0032352793
32	0x3c4e0071	0.012573347
33	0xbd3d98b3	-0.046288203
34	0xbbf9ec9f	-0.0076270844
35	0xbc787efb	-0.015166993
36	0xbd6aa7b5	-0.057288844
37	0xbc879a8d	-0.016553188
38	0x3bb423cd	0.005497432
39	0x3cd57359	0.026055979
40	0xbd0a2897	-0.033730116
41	0xbd5d2d9c	-0.053998575
42	0xbbbfcd52	-0.0058533335
43	0xbd08ea53	-0.033426594
44	0xbd0a9865	-0.03383674
45	0xbd1f879c	-0.038947687
46	0xbc500add	-0.0126979025
47	0x3cb60409	0.022218721
48	0xbb329bee	-0.0027253586
49	0x3cee78e6	0.029110383
50	0x3c37c660	0.01121673
51	0xbd649c31	-0.05581302
52	0xbd4e668f	-0.050390776
53	0x3c38bdbd	0.011275706
54	0x3d1a67e6	0.03769674
55	0xbcc2d96f	-0.023785321
56	0x3cf7ee42	0.030264977
57	0x3d1b7400	0.037952423
58	0x3d3cd23f	0.046098944
59	0xbd1b804d	-0.037964154
60	0xbceedd76	-0.029158335
61	0x3c763afb	0.0150287105
62	0x3d49f827	0.049308922
63	0x3cc228db	0.023701122
64	0xbd081e39	-0.033231948
65	0xbc87ed6a	-0.0165927
66	0xbd618cf6	-0.05506607
67	0xbd2a0474	-0.041508153
68	0xbd3d09be	-0.04615187
69	0xbd097684	-0.03356029
70	0x3caee32c	0.021348558
71	0xbd3e9dfa	-0.046537377
72	0xbc167e51	-0.00918539
73	0x3d00e97f	0.03147268
74	0xbb31077e	-0.0027012522
75	0xbd1f9296	-0.038958155
76	0x3a5e5f2a	0.00084828085
77	0x3d548b38	0.05189058
78	0x3ce7c41a	0.02829175
79	0xbcfce4d9	-0.030870842
80	0xbd2cb458	-0.042164177
81	0xbbb96b70	-0.0056585595
82	0x3c83e34e	0.016099598
83	0xbcd7961f	-0.0263167
84	0x3c938aa5	0.018010447
85	0x3d1b1b85	0.03786804
86	0xbc2dd090	-0.010608807
87	0x3d37350d	0.044728328
88	0xbd269adb	-0.040675025
89	0x3a5bd298	0.0008385568
90	0xbd1fea79	-0.03904197
91	0xbcc08920	-0.023502886
92	0x3cfa5875	0.030559758
93	0x3ca6b324	0.020349093
94	0x3d44677b	0.04795025
95	0xbcc00681	-0.023440601
96	0xbcf0ab27	-0.029378487
97	0x3d21e837	0.039528098
98	0xbb8ca6ea	-0.0042923586
99	0xbd2a2869	-0.041542444
100	0x39b50405	0.00034526005
101	0xbc2df4d5	-0.010617455
102	0x3a27fb1a	0.00064079615
103	0xbd3f3d46	-0.046689294
104	0x3c6a0826	0.014284169
105	0xbd32f27f	-0.043688294
106	0xbd5212d1	-0.051287476
107	0xbc9f7d1b	-0.019468835
108	0x3b3303c6	0.0027315482
109	0x3cc5a423	0.024126118
110	0x3b272e43	0.0025509752
111	0x3d57b14f	0.05265933
112	0x3cd1eb85	0.025625
113	0xbd4413b2	-0.047870345
114	0x3c9df80d	0.019283319
115	0xbbb91c55	-0.0056491294
116	0x3d346dff	0.044050213
117	0x3cd68ed1	0.026191147
118	0xbbc8e2bc	-0.0061305445
119	0xbcaad3b9	-0.02085291
120	0x3d2e5025	0.0425569
121	0x3cdf9423	0.027292317
122	0x3c0bbf93	0.008529562
123	0x3cc0d7c6	0.023540389
124	0xba69eba3	-0.0008923357
125	0xbbb95934	-0.005656386
126	0x3af0f0d1	0.0018382316
127	0x3d23e373	0.040011834
128	0xba603f10	-0.0008554319
129	0x3d29409a	0.041321374
130	0xbd2c8c93	-0.04212625
131	0xbd80a539	-0.06281514
132	0xbd45726b	-0.04820482
133	0xbcd6985e	-0.026195701
134	0xbc7caab8	-0.015421562
135	0x3cf0f90d	0.029415632
136	0xbc9e08cf	-0.01929131
137	0x3d459727	0.048239853
138	0x3c99dc10	0.018781692
139	0x3cdce116	0.026962798
140	0x3c0b860d	0.008515847
141	0xbcc43048	-0.023948804
142	0x3c1e6d63	0.0096696345
143	0x3c3fe18a	0.011711488
144	0xbd5c42e8	-0.053774744
145	0xbd2878c6	-0.041130804
146	0xbcfdb70e	-0.030971076
147	0xbcf3db03	-0.029767519
148	0x3cb48250	0.022034794
149	0xbd03c338	-0.032168597
150	0xbc95f16e	-0.0183036
151	0x3c424a4a	0.011858532
152	0xbd0a5620	-0.03377354
153	0xbce2caf9	-0.027684676
154	0xbc270719	-0.010194563
155	0xbc06b0fd	-0.008220908
156	0xbcf2aef5	-0.029624442
157	0xbd78a673	-0.060705613
158	0x3d10126d	0.035173822
159	0xbd345a9b	-0.04403172
160	0xbce4ecfa	-0.02794503
161	0x3d1da978	0.038491696
162	0x3d424472	0.047428556
163	0x3ca77be1	0.020444812
164	0x3b74aca2	0.0037334342
165	0x3cde79c2	0.027157668
166	0x3d2925ed	0.041295934
167	0x3d6ee111	0.05832011
168	0xbce72dfb	-0.028220167
169	0x3d0e2e16	0.03471192
170	0x3c8f420e	0.017487552
171	0x3d7871c0	0.060655355
172	0xbac4f3a6	-0.0015026226
173	0xbd0c9631	-0.03432292
174	0xbd1542a5	-0.03644051
175	0xbcc292a7	-0.02375157
176	0xbd0eb098	-0.03483638
177	0x3c19cd7d	0.009387371
178	0x3d098090	0.033569872
179	0xbcc43113	-0.023949182
180	0x3d31b6ea	0.04338733
181	0x3b20dca6	0.002454558
182	0x3ccd6732	0.025073621
183	0xbc083f6d	-0.008315903
184	0x3beb85c4	0.007187577
185	0x3d4d9201	0.05018807
186	0x3c04c8ab	0.008104484
187	0x3d1490fa	0.036271073
188	0xbd507fc4	-0.050903097
189	0xbc558c37	-0.013033918
190	0x3d0b1e77	0.0339646
191	0xbbddc254	-0.0067675505
192	0x3cbd8e0a	0.023139019
193	0xbc358000	-0.011077881
194	0x3d55160d	0.052022982
195	0x3d905b78	0.07048696
196	0xbcb1a6c5	-0.021685967
197	0xbd9fbadc	-0.077993125
198	0xbd96c01e	-0.07360862
199	0x3d04d8ad	0.0324332
200	0xbac841ea	-0.0015278433
201	0xbd89bf79	-0.06725974
202	0xbd0a4470	-0.033756673
203	0xbd16e929	-0.036843453
204	0xbcd4c34a	-0.025972027
205	0xbc6ac011	-0.014328019
206	0x3d0aba5a	0.033869125
207	0x3c17ab88	0.009257205
208	0xbd3c1dab	-0.04592673
209	0x3c86a5ca	0.016436476
210	0xbceddfae	-0.029037323
211	0xbd29b6bd	-0.04143404
212	0xbd486e00	-0.04893303
213	0xbd71ed90	-0.059064448
214	0x3c733cff	0.014846086
215	0xbc0bf77b	-0.008542891
216	0x3d1c2c27	0.038128044
217	0xbd3a4abd	-0.045481432
218	0x3c16bdf6	0.009200564
219	0x3c940d09	0.018072622
220	0xbb5efbd4	-0.0034024613
221	0xbcf420f2	-0.029800866
222	0x3c0dd557	0.008656821
223	0x3cf33f7c	0.029693358
224	0x3c64e706	0.013971096
225	0x3cd6e933	0.026234245
226	0x3cafae83	0.021445518
227	0x3cbace28	0.022803381
228	0x3cd8d07e	0.026466604
229	0x3c17a6ea	0.009256104
230	0xbd217f2c	-0.03942792
231	0xbd0da45d	-0.034580577
232	0xbd421f9b	-0.047393423
233	0x3d772ea2	0.060347207
234	0xbc51df2a	-0.012809554
235	0x3caf2d19	0.021383809
236	0xbd39278c	-0.04520373
237	0xbbdd9cab	-0.006763061
238	0xbd6cf943	-0.057854902
239	0xbc8ca906	-0.01717044
240	0xbd4a8a8c	-0.049448535
241	0x3d1701dc	0.036867008
242	0x3a92e6a9	0.0011207658
243	0x3d33c97e	0.04389333
244	0x3c269c10	0.010169044
245	0xbc73bb58	-0.014876209
246	0x3d8f2b55	0.06990687
247	0xbca7d3aa	-0.020486671
248	0x3acae678	0.0015480062
249	0x3cf05759	0.029338526
250	0x3d57a34b	0.052645963
251	0xbc946b21	-0.01811749
252	0x3c9e0478	0.01928924
253	0x3c8b3494	0.016992845
254	0xbc04cb8e	-0.008105172
255	0xbc106f62	-0.008815618

bias f4 [48]
0	0x3b735155	0.0037127335
1	0x3d9653de	0.07340215
2	0xbd218b04	-0.039439216
3	0xbd4d0957	-0.050057735
4	0xbca32806	-0.019916546
5	0xbd60b4b9	-0.05485985
6	0xbd34df71	-0.044158403
7	0xbc110355	-0.008850892
8	0x3d8a8472	0.06763543
9	0xbaee605c	-0.0018186676
10	0x3d3d42ca	0.046206273
11	0x3cc3f8d9	0.02392237
12	0xbd569017	-0.05238351
13	0x3c9810b7	0.018562658
14	0xbb8d8470	-0.0043187663
15	0xbd851355	-0.06497828
16	0xbd04365a	-0.032278396
17	0xbc1de982	-0.009638192
18	0xbc608e71	-0.013705836
19	0x3cde46a7	0.027133299
20	0x3c695822	0.014242204
21	0x3d74c96c	0.059762403
22	0xbd663310	-0.05620104
23	0xbd411b7c	-0.04714535
24	0xbd599187	-0.0531173
25	0xbb54ea8c	-0.0032488434
26	0xbbb7711f	-0.005598202
27	0x3cda4a6b	0.026646813
28	0x3d886294	0.06659427
29	0xbd1506d5	-0.03638347
30	0xbda3ffa0	-0.08007741
31	0x3d09ef69	0.033675585
32	0x3bb11b5d	0.0054048733
33	0x3db257f0	0.08708179
34	0xbc8aed80	-0.016958952
35	0x3b24ba1c	0.0025135344
36	0x3d84acc1	0.06478263
37	0xbc5ebfeb	-0.0135955615
38	0xbda0d914	-0.07853904
39	0x3b204b7c	0.0024459055
40	0x3c0009ae	0.007814808
41	0x3b37e055	0.0028057296
42	0xbba4b23b	-0.0050261295
43	0x3c0389a1	0.008028419
44	0xbcb802c3	-0.022462254
45	0x3d43a590	0.047765315
46	0x3c9b46a9	0.018954592
47	0xbca96100	-0.020676136

weight f4 [96, 48, 4, 4]
0	0x3d54368e	0.05180984
1	0xbcc43b85	-0.023954162
2	0xbce572ee	-0.028008904
3	0x3cd421e0	0.02589506
4	0x3d06df5e	0.032927863
5	0xbc31d42f	-0.010853811
6	0xbb21f329	-0.0024711585
7	0xbd2b2237	-0.041780677
8	0xbba5ced3	-0.0050600558
9	0x3d03a512	0.032139845
10	0x3c12c387	0.00895775
11	0xbc16033f	-0.009156047
12	0xbbb4f5f8	-0.005522486
13	0xbc926de6	-0.01787467
14	0x3d080db2	0.033216186
15	0x3be6fee7	0.0070494297
16	0xbbb8a564	-0.0056349505
17	0x3c80c913	0.01572088
18	0xbc934d83	-0.017981296
19	0x3c29ae21	0.010356457
20	0x3c01166e	0.007878883
21	0x3cb34774	0.021884657
22	0xbcd24447	-0.025667323
23	0xbc935bce	-0.017988112
24	0x3bc0f2d6	0.0058883233
25	0x3d5c4fec	0.053787157
26	0x3d3768cd	0.04477768
27	0x3b675429	0.0035297966
28	0xbce8df29	-0.028426724
29	0xbbf219b5	-0.0073883184
30	0xbc07f686	-0.008298522
31	0xbca6a523	-0.020342415
32	0xbccbf652	-0.024897728
33	0x3c986166	0.01860113
34	0x3cff1b7b	0.031141033
35	0x3c48776d	0.012235505
36	0x3c149583	0.0090688495
37	0x3d253c5b	0.040340763
38	0x3caffc8b	0.021482727
39	0xbc5911f0	-0.013248906
40	0xbc6a8980	-0.014315009
41	0xbc7abfe7	-0.015304542
42	0x3bd28609	0.0064246696
43	0xbccdc3bc	-0.025117747
44	0x3bde97d5	0.006793002
45	0xbcb001bf	-0.021485208
46	0xbcf501f6	-0.029908162
47	0x3c53a403	0.012917521
48	0x3c36bbb1	0.011153148
49	0x3ceedda1	0.029158415
50	0xbcb16525	-0.021654675
51	0x3c3fde53	0.011710721
52	0x3d1dd68d	0.03853469
53	0x3d803b50	0.06261313
54	0x3d409308	0.04701522
55	0x3cea832c	0.028627
56	0xbb42a4c4	-0.0029700259
57	0x3cda2fd2	0.02663413
58	0x3d477552	0.04869587
59	0x3c8afb3a	0.016965497
60	0xbcec311a	-0.028832007
61	0x3bb7f9f7	0.005614515
62	0x3d53ebfd	0.051738728
63	0xbcd1d8e5	-0.025616119
64	0x3c11b4f5	0.008893241
65	0xbd288c7e	-0.04114961
66	0x3bb7ec90	0.0056129172
67	0xbcf9aa36	-0.03047667
68	0xbc8ef3bd	-0.017450208
69	0xbc0e20ca	-0.00867481
70	0xbcd62f7b	-0.026145687
71	0xb9fe66eb	-0.00048523335
72	0x3bf13e0f	0.0073621343
73	0x3ba3d8aa	0.0050001936
74	0xbd24be8d	-0.040220786
75	0xbcf8ef0e	-0.030387428
76	0x3d0118ae	0.031517677
77	0xbd085b38	-0.033290118
78	0xbc599231	-0.013279484
79	0xbcafb699	-0.021449374
80	0x3ce91e47	0.02845682
81	0x3d1963e8	0.037448794
82	0xbbe59c58	-0.007007163
83	0x3bf7fbb9	0.0075678495
84	0x3cfdbbf1	0.030973407
85	0x3d4697a4	0.04848446
86	0x3c539302	0.012913467
87	0xbd0f1cd6	-0.03493961
88	0x3d4b76a8	0.049673706
89	0xbce78376	-0.028260928
90	0x3babe8ee	0.0052462732
91	0xbcf1d9a2	-0.02952272
92	0x3ac2756d	0.0014836021
93	0x3c0a5af1	0.008444534
94	0xbcc31818	-0.0238152
95	0xbd715a71	-0.058924142
96	0x3d3bff50	0.04589778
97	0x3b0bef50	0.0021352358
98	0x3c0aafc4	0.008464757
99	0x3c283608	0.010266788
100	0x3d5e0adf	0.054209586
101	0x3cafe265	0.021470258
102	0x3d1cd0d6	0.0382851
103	0x3cc1d2bb	0.023660054
104	0xbcad7cf5	-0.021177748
105	0x3afbf0c3	0.0019221533
106	0x3cae3ad2	0.021268282
107	0xbd3f3342	-0.046679743
108	0xbbd3ee39	-0.0064676073
109	0x3cc4d8da	0.024029184
110	0x3c88dacc	0.016705893
111	0xbcedc55d	-0.029024774
112	0xbb913657	-0.0044315266
113	0x3d1d1c71	0.038357202
114	0x3d19514d	0.03743105
115	0xbd18d07a	-0.037308194
116	0xbc4fd0d4	-0.012684066
117	0x3d3d1186	0.04615929
118	0xba8dfd75	-0.0010832982
119	0xbb81ed33	-0.003965044
120	0xb9ffa0d2	-0.0004875721
121	0x3ce45a29	0.027875023
122	0x3d02d466	0.03194084
123	0x3c12eb6a	0.00896726
124	0xbce11ec6	-0.027480494
125	0x3c2d20d4	0.010566909
126	0x3bc4bae6	0.0060037253
127	0xbcd57589	-0.026057022
128	0x3d31b109	0.043381725
129	0xbc66829e	-0.0140692275
130	0xbcf78860	-0.030216396
131	0xbc0218e8	-0.007940508
132	0x3d3f044e	0.046634965
133	0x3d17f37e	0.037097447
134	0x3c9f5a87	0.019452346
135	0xbcf464a0	-0.029833138
136	0xbd299aed	-0.041407514
137	0x3b9b317c	0.0047361236
138	0xba4f89cf	-0.00079169584
139	0x3bfe858b	0.0077673844
140	0x3cd208b2	0.025638912
141	0x3c869090	0.016426355
142	0xbbf9695f	-0.007611438
143	0xbd2f6059	-0.042816494
144	0x3d658c51	0.05604202
145	0x3bf62141	0.0075112884
146	0xbcfca083	-0.030838257
147	0x3cdaeace	0.026723292
148	0xbb06242b	-0.0020468335
149	0x3c7bb750	0.015363529
150	0x3bee60bb	0.0072747148
151	0x3a7bc830	0.00096047204
152	0xbcd879b8	-0.026425228
153	0xbca59dbc	-0.020216815
154	0xbd533a41	-0.051569227
155	0xbd1b25cc	-0.037877843
156	0x3ba82fe3	0.0051326617
157	0xbc3bdb4d	-0.01146586
158	0xbcd1aacf	-0.025594143
159	0xbd2b7a18	-0.041864485
160	0x3ca27363	0.019830411
161	0xbc3f67e2	-0.011682482
162	0x3d15eeac	0.03660457
163	0xbc46ddff	-0.012137889
164	0x3ce23de5	0.027617404
165	0xbc7dca62	-0.015490146
166	0x3b5b9c19	0.003350979
167	0x3c4bc9a8	0.012438215
168	0xbc95000b	-0.018188497
169	0xbd34e9fe	-0.044168465
170	0x3c5ee967	0.013605452
171	0xbd6e3655	-0.058157284
172	0x3cf967e1	0.030445041
173	0x3c73b568	0.014874794
174	0xbce87e59	-0.02838056
175	0xbcd16c49	-0.02556433
176	0xbb9883fb	-0.004654405
177	0x3cc2a3be	0.023759719
178	0x3d1ac30d	0.03778367
179	0xbc7accf7	-0.0153076565
180	0x3d4c09d0	0.049814045
181	0x3d84dc05	0.06487278
182	0x3d3eb6f5	0.0465612
183	0x3c44c40d	0.012009633
184	0xbd086a00	-0.033304214
185	0x3c9f91fb	0.019478789
186	0x3d148476	0.036259137
187	0xbcd85407	-0.026407255
188	0x3b2cf081	0.0026388469
189	0xbb608c7c	-0.0034263423
190	0x3cc5dda1	0.024153532
191	0x3b4fb484	0.003169329
192	0x3d408452	0.04700119
193	0x3d02702a	0.03184525
194	0x3d63b76e	0.055594854
195	0x3c942323	0.01808316
196	0xbb982dc5	-0.004644128
197	0xbc58632a	-0.013207236
198	0x3d237e99	0.039915655
199	0xbca97b68	-0.020688727
200	0xbcd3b991	-0.02584532
201	0xbc593e76	-0.013259521
202	0x3cb70a16	0.022343677
203	0xbc0622b6	-0.008186987
204	0x3d0ccb81	0.034373764
205	0x3c67a4aa	0.01413838
206	0x3c77d20f	0.015125765
207	0xbc870f8d	-0.016486907
208	0x3d0c9a13	0.034326624
209	0x3d1cef00	0.038313866
210	0xbce75668	-0.028239444
211	0x3cc6c116	0.024261992
212	0xbd14ee3f	-0.03636002
213	0x3d47dc64	0.048794165
214	0x3cbf2355	0.023332277
215	0xbc8ad423	-0.016946858
216	0x3ca1a3a0	0.019731343
217	0x39d0eb54	0.00039848185
218	0x3d079872	0.033104368
219	0x3cea8250	0.028626591
220	0xbcd0a0aa	-0.025467236
221	0xbcd48560	-0.025942504
222	0x3cb598d9	0.02216761
223	0x3ccc71a8	0.02495654
224	0xbb830332	-0.0039981836
225	0xbc890644	-0.01672662
226	0x3cae7d3c	0.02129995
227	0xbc0a5de3	-0.008445236
228	0x3d037eaf	0.032103237
229	0x3d736fcf	0.0594328
230	0xbc3a4971	-0.011370049
231	0x3c16c822	0.009202989
232	0xbbfadbf3	-0.0076556145
233	0x3ccd2de4	0.025046296
234	0xbb1b18df	-0.0023665947
235	0x3c872bcb	0.016500374
236	0xbc94742e	-0.018121805
237	0x3c86758e	0.016413476
238	0xbcd25505	-0.025675306
239	0xbd245279	-0.040117715
240	0x3d5bbe31	0.053648178
241	0x384faf86	4.9516115e-05
242	0x3afec44a	0.0019437161
243	0xbac92e89	-0.0015348952
244	0xbc9e0d5c	-0.01929348
245	0xbca3af05	-0.019980917
246	0x3cbe83a6	0.023256134
247	0xbc8dce7d	-0.017310375
248	0xbcfab512	-0.03060392
249	0x3ce74c10	0.028234512
250	0xbc12dbb4	-0.008963514
251	0x3cc7cc9f	0.024389563
252	0xba2096ea	-0.00061260036
253	0x3d3e1be2	0.04641331
254	0xbcc4b5f0	-0.024012536
255	0xbcfac08e	-0.030609395

bias f4 [96]
0	0xbd36f2e3	-0.04466523
1	0x3d3d3a3d	0.04619812
2	0xbc318523	-0.010834965
3	0xbca1f600	-0.019770622
4	0x3d1d5702	0.038413055
5	0xbd3a8236	-0.045534335
6	0xbbd9a6cf	-0.0066421996
7	0x3d98ccc0	0.07460928
8	0xbbd483c0	-0.0064854324
9	0xbd416827	-0.047218468
10	0x3d81a558	0.06330365
11	0xbd4d7768	-0.050162703
12	0xbc811553	-0.015757238
13	0xbcd9b7c7	-0.02657689
14	0xbd430c51	-0.047619168
15	0x3b9ac2fa	0.00472295
16	0x3cdd907f	0.02704644
17	0x3d2202eb	0.039553564
18	0xbbcc229d	-0.006229712
19	0xbd3cb61b	-0.046072107
20	0xbcf898eb	-0.030346354
21	0x3cb85cc7	0.022505177
22	0xbb493548	-0.0030701924
23	0xbd3b256c	-0.045689985
24	0x3c9283fc	0.0178852
25	0x3c12e028	0.008964576
26	0xbcdbf2b2	-0.026849125
27	0xbcaad485	-0.02085329
28	0xbd3511e7	-0.044206526
29	0xbd5eb119	-0.054368112
30	0x3da9771d	0.08274672
31	0xbbdd740c	-0.0067582186
32	0xbc49ce3e	-0.012317238
33	0xbd11942d	-0.035541702
34	0x3d1b4f16	0.03791722
35	0x3d4f2e1b	0.05058108
36	0xbc41cffa	-0.011829371
37	0xbcc37522	-0.023859564
38	0xbb89cc27	-0.004205245
39	0xbd8809d6	-0.06642501
40	0x3c28b10d	0.010296118
41	0xbd8136ba	-0.063092664
42	0xbdca03f0	-0.09864032
43	0x3cc7a6e4	0.024371572
44	0x3d3d1161	0.046159152
45	0x3e19ec1d	0.15031476
46	0x3b90230e	0.00439871
47	0xbd00d91d	-0.031457055
48	0xbb38e888	-0.0028214771
49	0x3a1a3b01	0.0005883426
50	0xbb8c0079	-0.0042725173
51	0xbd2eba64	-0.042658225
52	0xbb0d74a0	-0.0021584406
53	0x3d167d75	0.03674074
54	0x3ab2ceeb	0.0013641989
55	0xbcbffd53	-0.023436224
56	0x3c3ad5af	0.011403485
57	0x3d02b4f6	0.03191086
58	0xbb82c1eb	-0.003990402
59	0x3d01b662	0.031668074
60	0xbca99ffd	-0.020706171
61	0xbd2e69b1	-0.042581264
62	0xbc4e5fd1	-0.012596087
63	0xbb564182	-0.0032692854
64	0xbd426364	-0.047458068
65	0xbc3e2f59	-0.011607968
66	0xbd2d93a5	-0.042377133
67	0xbcc194cb	-0.02363052
68	0xbd902f7c	-0.07040307
69	0xbc68ab0a	-0.014200935
70	0xbb8926d7	-0.0041855383
71	0xbc26da6f	-0.010183915
72	0x3cf80803	0.030277258
73	0xbd2d8310	-0.04236132
74	0xbc38afe6	-0.011272406
75	0xbd9bf565	-0.07615165
76	0xbd93433c	-0.07190558
77	0x3bc92a31	0.006139063
78	0x3d25e610	0.040502608
79	0xbd88a2bf	-0.06671666
80	0xbc2717b2	-0.0101985205
81	0xbdbfb516	-0.09360711
82	0xbd4cd445	-0.050007124
83	0xbcfd478f	-0.03091791
84	0xbd9cbba2	-0.076529756
85	0xbd2a28ea	-0.041542925
86	0x3b6cac4e	0.0036113444
87	0x3be72a69	0.007054616
88	0xbcf215bf	-0.029551385
89	0x3cb0ca75	0.021580914
90	0xbd019a68	-0.031641394
91	0xbbf9ec38	-0.0076270364
92	0xbbea19d4	-0.0071441922
93	0xbcbc816b	-0.02301093
94	0xbd509ed0	-0.050932705
95	0x3d62f4e3	0.055409323

weight f4 [96, 48, 4, 4]
0	0x3c9d6d9a	0.019217301
1	0xbace795e	-0.0015752723
2	0x3c2187d0	0.00985904
3	0xbc339b9c	-0.010962393
4	0xbc8f96ae	-0.017527904
5	0xbc847a53	-0.01617161
6	0x3c8f9b8f	0.01753023
7	0x3c2773e1	0.010220499
8	0xbd0e6e45	-0.03477313
9	0x3ca1d099	0.019752787
10	0xbd76d493	-0.06026132
11	0xbcf2a7dd	-0.02962106
12	0xbc5d8fa2	-0.013523014
13	0xbc6b810f	-0.014374032
14	0x3ca22409	0.019792574
15	0x3ad5f131	0.0016322491
16	0xbb6bc2d6	-0.0035974286
17	0x3cfb262d	0.030657852
18	0x3d570cef	0.05250257
19	0x3c12a98f	0.008951559
20	0x3b8944d3	0.0041891127
21	0x3d19f932	0.037591167
22	0x3c703cc9	0.01466293
23	0x3b639f68	0.0034732465
24	0xbba30a07	-0.0049755606
25	0xbc2e9380	-0.010655284
26	0x3c59dad8	0.013296805
27	0x3d2a10ad	0.04151981
28	0xbc2d2d19	-0.010569834
29	0xbba9406d	-0.005165151
30	0x3ca1f7ff	0.019771574
31	0x3c823ff7	0.015899641
32	0xbd141205	-0.036149997
33	0xbbd8159b	-0.0065943724
34	0x3cf9882f	0.030460445
35	0x3c43d872	0.01195346
36	0x3ce324d7	0.027727528
37	0x3d1c6889	0.03818563
38	0x3d0399c8	0.03212908
39	0xbc21ddb9	-0.009879523
40	0x3cba6855	0.022754828
41	0xbc0796ec	-0.008275729
42	0x387770ae	5.899433e-05
43	0xbc83b564	-0.016077705
44	0x3aff1e38	0.0019463962
45	0x3ca1a46b	0.01973172
46	0x3c115d50	0.008872345
47	0x3ca1f218	0.01976876
48	0xbc4c711a	-0.012478137
49	0xbc17f818	-0.009275459
50	0x3cb93dc8	0.022612467
51	0xbbe4e447	-0.0069852206
52	0xbc2d4b98	-0.010577105
53	0xbc6dc75a	-0.014512861
54	0x3cd79fdc	0.026321344
55	0x3d273bfd	0.040828694
56	0xbcdc46a1	-0.026889147
57	0x3c9d0f75	0.01917241
58	0xbd3daf5e	-0.04630982
59	0x3c038253	0.008026677
60	0xbd2761fd	-0.040864933
61	0xbcd31bc3	-0.025770074
62	0xbc4e52dc	-0.012592997
63	0x3c64d297	0.013966224
64	0x3ccaa442	0.024736527
65	0x3ae65010	0.0017571468
66	0x3b04b614	0.0020250129
67	0xbcb0b660	-0.021571338
68	0x3d1402d3	0.036135506
69	0x3c20389d	0.009779123
70	0xbc2c27e0	-0.010507554
71	0x3cb42744	0.02199138
72	0xbc96acb0	-0.01839289
73	0xbd25053e	-0.040288202
74	0xbcc3ee3f	-0.023917316
75	0xbd399d35	-0.04531594
76	0xbbce7b68	-0.0063013323
77	0x3cac62ac	0.021043144
78	0x3d02fbee	0.03197854
79	0x3cc81b46	0.024427067
80	0x3a9b3c33	0.0011843502
81	0xb901627e	-0.0001233909
82	0xbd195789	-0.037436996
83	0x3c9f9f32	0.01948509
84	0xbd7ae6af	-0.061255153
85	0x3cc69a42	0.024243478
86	0xbca2469c	-0.01980906
87	0xbcda53e1	-0.026651325
88	0xbcf03e4b	-0.029326579
89	0x3cb35e51	0.02189556
90	0xbcb9a382	-0.022660974
91	0xbcb9ef7d	-0.022697205
92	0x3c090c17	0.008364699
93	0xbdba8fd6	-0.09109466
94	0x3c3a2ccc	0.0113632195
95	0xbd1a4439	-0.03766272
96	0x3c925617	0.017863316
97	0xbd21bf76	-0.039489232
98	0x3d010c1f	0.0315057
99	0xbc8633a4	-0.016382046
100	0xbd3970ff	-0.045273777
101	0xbd31544b	-0.04329328
102	0x3c9f11b8	0.019417629
103	0x3be27803	0.006911279
104	0xbc9f014c	-0.019409798
105	0xbbb22bd6	-0.0054373546
106	0xbd09b34c	-0.033618256
107	0x3c99d754	0.018779434
108	0xbb90e62c	-0.00442197
109	0xbbcfee3b	-0.006345538
110	0x3cc2d2c8	0.023782149
111	0x3b84ea0a	0.00405622
112	0xbb8a95fb	-0.004229305
113	0x3d28a24b	0.0411704
114	0xbcac2cf9	-0.021017538
115	0x3ca18705	0.019717703
116	0xbcd41f98	-0.025893971
117	0x3d62ee6c	0.055403158
118	0x3bf4a3af	0.0074658017
119	0x3d40de25	0.047086854
120	0xbc1d8d5a	-0.00961622
121	0x3c54695e	0.012964575
122	0xbcbbb041	-0.022911193
123	0xbcc693ff	-0.024240492
124	0x3b93aa5f	0.004506394
125	0x3c6ceebe	0.014461217
126	0xbd351d67	-0.044217493
127	0x3c64359d	0.013928798
128	0x3ccf147e	0.025278326
129	0xbda58c90	-0.08083451
130	0x3cc1f827	0.023677899
131	0xbd202a9b	-0.03910313
132	0xbd1e1628	-0.03859535
133	0xbc1b972d	-0.009496492
134	0xbc8f3382	-0.017480616
135	0xbbb20d72	-0.0054337317
136	0x3c7969fc	0.015223023
137	0x3c6990ad	0.014255685
138	0x3cb3fb04	0.02197028
139	0x3d1eee6a	0.038801588
140	0x3c860218	0.01635842
141	0x3cf2ec59	0.029653715
142	0x3cc1d129	0.023659306
143	0xbc1b84c0	-0.009492099
144	0x3cff55a2	0.031168763
145	0xbd866e89	-0.06564052
146	0x3c9455d0	0.018107325
147	0xbda015db	-0.078166686
148	0x3ba893bb	0.005144564
149	0x3cae98bc	0.021313064
150	0x3d14569b	0.036215406
151	0xbc8c52a2	-0.017129246
152	0xbcdc0a0b	-0.026860258
153	0x3c6eb9ef	0.014570697
154	0x3cce9304	0.025216587
155	0x3bfc5220	0.0077002198
156	0xbccbe713	-0.024890458
157	0x3c129c0a	0.008948335
158	0x3c782379	0.015145176
159	0xbc9f46c9	-0.019442933
160	0xbb8460d4	-0.004039863
161	0x3c3a2d4d	0.01136334
162	0x3d4327db	0.04764543
163	0xbca219f0	-0.019787759
164	0xbd294293	-0.041323256
165	0xbd2b44d0	-0.04181367
166	0xbd508965	-0.05091228
167	0xbca2dd3c	-0.019880883
168	0x3c5b8bcf	0.013400032
169	0xbc06b639	-0.008222156
170	0x3a021abd	0.0004963091
171	0xbd231002	-0.039810188
172	0x3d2434a7	0.040089276
173	0xbd067925	-0.032830376
174	0x3cf14db9	0.029456006
175	0x3bc18270	0.005905442
176	0xbc9d38db	-0.01919215
177	0x3c650a28	0.013979472
178	0x3bf5337f	0.0074829455
179	0xbcba618d	-0.022751594
180	0x3cc81a36	0.02442656
181	0x3d274a3a	0.040842272
182	0x3d146021	0.03622449
183	0xbbfabe68	-0.0076520927
184	0xbcbd8477	-0.023134453
185	0x3c88f3ba	0.01671778
186	0xbcdeb683	-0.027186638
187	0x3cbd33dc	0.023096018
188	0xbcb7e627	-0.022448612
189	0xbb823f12	-0.0039748037
190	0xbc8a0335	-0.016847232
191	0x3cbab1d8	0.02278988
192	0x3c60967b	0.013707752
193	0xbce0d007	-0.027442945
194	0x3bec4af8	0.0072110854
195	0x3cec6065	0.028854558
196	0xbd6b353d	-0.05742382
197	0x3cfc506e	0.03080007
198	0x3bd36729	0.0064515066
199	0x3cb6fe63	0.022338098
200	0x3d4d117e	0.05006551
201	0xbcaf0bd3	-0.021367943
202	0x3be42068	0.006961871
203	0xbd26664e	-0.04062491
204	0xbc8f20df	-0.017471729
205	0xbbd8f3e0	-0.006620869
206	0xbc5d77c4	-0.013517324
207	0x3bccfa21	0.0062554036
208	0xbc7d9409	-0.015477189
209	0x3c6dd9b6	0.014517238
210	0xbc858b78	-0.016301855
211	0x3b7977b9	0.0038065745
212	0xbc302370	-0.010750636
213	0x3d2f43c4	0.042789236
214	0x3d25826a	0.040407576
215	0xbcd7e29e	-0.026353177
216	0xbd033c40	-0.03203988
217	0x3c939ee9	0.01802011
218	0x3d2a154c	0.041524217
219	0x3c05acaf	0.008158847
220	0xbc1d72e4	-0.009609912
221	0xbcbae187	-0.022812618
222	0x3d3a67fb	0.04550932
223	0x3ce4a1a4	0.027909108
224	0x3b5b14bf	0.0033429114
225	0x3cae59b3	0.021283006
226	0xbc0f8d2a	-0.0087616835
227	0x3bfd5bdc	0.0077318978
228	0x3b552ca9	0.003252784
229	0xbcfcf468	-0.03087826
230	0xbd2aee93	-0.04173143
231	0x3d03743c	0.03209327
232	0x3d06d132	0.032914348
233	0xbb1f4177	-0.0024300495
234	0x3be8473b	0.0070885695
235	0x3c4137b6	0.011793068
236	0x3cabf669	0.020991521
237	0xbd0677e0	-0.032829165
238	0x3cd26bdc	0.025686197
239	0xbd0a541a	-0.03377161
240	0x3d35c9bb	0.04438184
241	0x3bc15674	0.0059001986
242	0x3c3cbdae	0.011519833
243	0x3c620916	0.013796112
244	0x3d1799b1	0.037011806
245	0x3d0bf0a1	0.03416503
246	0x3bdc1701	0.0067166095
247	0x3cfb087a	0.03064369
248	0xbcae1a4a	-0.02125277
249	0xbb8d7900	-0.004317403
250	0x3c1dc8f9	0.009630435
251	0xbd1e0a0e	-0.038583808
252	0xbd520c30	-0.051281154
253	0x3cb4dd0c	0.02207806
254	0x3cab2c6e	0.02089521
255	0x3d03e1e7	0.03219786

bias f4 [48]
0	0xbd4d27c2	-0.050086744
1	0x3ce3c154	0.027802147
2	0xbca0d1c4	-0.019631274
3	0x3cb27ca6	0.021787953
4	0xbd4ea9b3	-0.050454807
5	0xbd6ba30f	-0.05752855
6	0x3d8a75d9	0.06760759
7	0xbd2393e1	-0.03993595
8	0xbaa0347a	-0.001222267
9	0xbd9028d2	-0.07039036
10	0x3d4efca5	0.05053391
11	0xbd4edb01	-0.050501827
12	0xbd4f4a47	-0.050607946
13	0xbd46fa9e	-0.04857885
14	0xbcfda069	-0.030960279
15	0xbd59a213	-0.05313308
16	0xbd780ad6	-0.06055721
17	0xbc5a2441	-0.013314308
18	0x3c9a9a42	0.018872384
19	0x3cb5e5a3	0.022204226
20	0xbd847d0b	-0.064691626
21	0x3ce017aa	0.027355034
22	0xbc70cd0e	-0.014697326
23	0x3d545e3a	0.051847674
24	0xbdd98fb2	-0.10623111
25	0xbd46a6b6	-0.04849883
26	0xbd31e21f	-0.043428537
27	0xbcba3e43	-0.022734767
28	0xbd93fa5e	-0.07225488
29	0xbd054de9	-0.032545004
30	0xbd315947	-0.043298032
31	0xbcf9fbff	-0.030515669
32	0xbc9dc7f1	-0.019260379
33	0xbcc772e9	-0.024346786
34	0x3c9535cb	0.018214127
35	0x3cc7f348	0.024407998
36	0xbc2c29d2	-0.010508018
37	0xbd023ea0	-0.031798005
38	0xbbb7f962	-0.0056144455
39	0x3cbda022	0.023147646
40	0xbbf243f4	-0.0073933546
41	0x3b87b13b	0.0041410006
42	0xbd7d2d80	-0.06181097
43	0xbc1e9bcc	-0.0096807
44	0xbd50a747	-0.050940778
45	0x3caa6268	0.020798877
46	0xbdac5fe7	-0.084167294
47	0xbd4dc4fa	-0.05023668

weight f4 [48, 24, 4, 4]
0	0xb9941b80	-0.0002824925
1	0x3c5662ad	0.01308505
2	0x3cdbe8fb	0.026844492
3	0x3d16ea92	0.036844797
4	0xbd3c8926	-0.046029232
5	0x3c83085c	0.015995197
6	0x3b247865	0.0025096175
7	0x3d7ff7d6	0.062492214
8	0x3c328803	0.0108966855
9	0xbc88fab6	-0.01672111
10	0x399245fd	0.00027899435
11	0xbc9d3026	-0.019187998
12	0xbd3ea107	-0.046540286
13	0x3d2f7217	0.042833414
14	0x3c421125	0.011844908
15	0x3c3b8dfb	0.011447425
16	0x3cf6b6dd	0.030116493
17	0xbccccff7	-0.02500151
18	0xbc1db9ae	-0.009626789
19	0x3d889d8e	0.06670676
20	0xbb88a0c0	-0.0041695535
21	0xbd1b3d15	-0.03790005
22	0xbd0d4db0	-0.034497917
23	0x3d4254f1	0.047444288
24	0xbde649ce	-0.11244546
25	0xbe1da36a	-0.15394369
26	0xbddef455	-0.108864464
27	0x3ce5d4a7	0.028055502
28	0xbaf4c547	-0.0018674516
29	0xbe0049f1	-0.12528206
30	0xbdd40bbc	-0.10353801
31	0xbe605db4	-0.21910745
32	0x3cca234a	0.02467503
33	0xbc2552f1	-0.010090576
34	0xbd3ee71a	-0.046607114
35	0x3bf42647	0.007450852
36	0xbcc5e5e1	-0.024157466
37	0xbc5b0797	-0.013368509
38	0xbd101ba4	-0.03518261
39	0xbd386823	-0.045021188
40	0x3d1040e0	0.03521812
41	0xbb576702	-0.0032867794
42	0xbc0b4a8f	-0.008501663
43	0x3c8b8105	0.017029295
44	0xbcd29020	-0.02570349
45	0x3d8320c5	0.06402735
46	0xbd47dc41	-0.048794035
47	0x3c268917	0.010164521
48	0x3c031a0b	0.008001815
49	0x3d840394	0.06445995
50	0x3cf3903c	0.029731862
51	0xbcbddee5	-0.023177573
52	0x3dfabdd7	0.1224324
53	0x3d3c50f2	0.045975633
54	0x3d108a66	0.035288237
55	0x3dc013c7	0.09378772
56	0x3d2ecbf0	0.04267496
57	0x3d022136	0.031769954
58	0x3da92926	0.082598016
59	0x3d4afe8e	0.04955917
60	0x3d34cf39	0.044142935
61	0x3c66b635	0.0140815275
62	0x3b3ceb1b	0.0028826657
63	0xbceb4a0e	-0.028721835
64	0xbceeeba9	-0.029165106
65	0x3d0d0d5a	0.03443656
66	0x3d94ce19	0.072658725
67	0x3d8b0a3b	0.06789061
68	0x3d9a2dad	0.07528243
69	0x3d0dc0b4	0.034607604
70	0x3c174c05	0.009234433
71	0xbc9ff94a	-0.01952805
72	0x3cb88db1	0.022528501
73	0x3d0c1d44	0.034207597
74	0xba1a342b	-0.00058824074
75	0x3c9d45c1	0.0191983
76	0xbc5a3888	-0.013319142
77	0x3d33a74c	0.04386072
78	0x3d54cb1d	0.051951516
79	0x3c88645a	0.016649414
80	0xbd4a4088	-0.049377948
81	0xbb86ee74	-0.0041177813
82	0xbcde4036	-0.027130228
83	0x3bb6cb9e	0.0055784723
84	0x3d4a3edd	0.049376357
85	0x3ad23fbe	0.0016040725
86	0xbb83bc3a	-0.004020241
87	0x3d2fbd24	0.042904988
88	0xbbdef073	-0.006803566
89	0xb943234d	-0.000186098
90	0x3b63a9e0	0.0034738705
91	0x3d1eeaf8	0.038798302
92	0xbd03c830	-0.032173336
93	0x3d5df871	0.05419201
94	0x3d0147e3	0.031562697
95	0x3d1f6355	0.03891309
96	0x3d3feb7b	0.04685543
97	0x3cf9119c	0.030403905
98	0xbc0133c7	-0.00788588
99	0xbcf6edf8	-0.03014277
100	0x3cc76d94	0.024344243
101	0xbd03607b	-0.032074433
102	0xbd1a2e19	-0.03764162
103	0xbddd8e19	-0.108181186
104	0x3cf2a4e2	0.029619638
105	0x3d899410	0.06717694
106	0x3d6e1f71	0.058135454
107	0xbd871486	-0.065957114
108	0x3d3ac75c	0.04560028
109	0x3c9c5e43	0.019087916
110	0x3cbe60bf	0.023239492
111	0x3c89e6e0	0.016833723
112	0x3d127829	0.035759125
113	0x3d665dbe	0.056241743
114	0x3dc2fe36	0.09521143
115	0xbc2eedf2	-0.010676848
116	0x3b972bdd	0.004613383
117	0x3c3bd9e8	0.011465527
118	0x3d3a46c8	0.04547766
119	0x3d11ae2a	0.035566486
120	0x3cbb9204	0.022896774
121	0x3dbc0655	0.09180895
122	0x3d9a4ee2	0.07534577
123	0xbbc997e9	-0.0061521423
124	0x3c9c2546	0.019060742
125	0x3d2dbd87	0.042417075
126	0x3d118507	0.035527255
127	0x3c9f8ce1	0.019476356
128	0x3d1d66a7	0.038427975
129	0xbc8d2e94	-0.017234124
130	0xbd253d72	-0.040341802
131	0x3d30ea7a	0.043192364
132	0x3caad9f3	0.02085588
133	0x3cebebed	0.028799022
134	0x3c9317f1	0.017955752
135	0x3d58e8a2	0.05295623
136	0xbcb7a5a7	-0.022417856
137	0xbcb59b60	-0.022168815
138	0xbccac5ff	-0.024752615
139	0x3cec7c03	0.028867727
140	0xbbfbdc8d	-0.007686204
141	0xbd1f0e19	-0.038831804
142	0x3d603047	0.05473354
143	0x3d12e905	0.035866756
144	0xbc7c68fb	-0.015405889
145	0x3dfd2ee6	0.12362461
146	0x3ca3ef22	0.020011488
147	0x3d4cf633	0.05003948
148	0xbc7ae6f8	-0.015313856
149	0x3d96bd4c	0.07360324
150	0x3d2af181	0.041734222
151	0x3cc88c8e	0.024481084
152	0x3ceb158f	0.028696803
153	0xbcf0e3d1	-0.029405506
154	0x3cd7bb72	0.026334498
155	0x3d04587c	0.032310948
156	0x3de10c6b	0.10988697
157	0x3d76c8e9	0.060250197
158	0x3c705fe3	0.014671299
159	0xbd1784e5	-0.036991972
160	0x3cd2e086	0.025741827
161	0xbb96fe06	-0.0046079187
162	0x3b3f4aec	0.0029188944
163	0x3d855e70	0.06512153
164	0xbd10a4f0	-0.035313547
165	0x3ccd1f45	0.025039325
166	0x3da643c3	0.08118393
167	0x3e210e27	0.15728055
168	0x3d12cdfe	0.03584098
169	0x3d9cae81	0.076504715
170	0xbc7669e3	-0.015039894
171	0x3c0514ac	0.008122604
172	0x3ced8a90	0.028996736
173	0xbcb94f04	-0.022620685
174	0x3d77c53d	0.060490835
175	0x3d6cf578	0.057851285
176	0x3d8aec4e	0.06783353
177	0x3d5e9e16	0.05434998
178	0xbc5b5392	-0.013386624
179	0x3cf33038	0.029686078
180	0x3b13a9f2	0.0022531715
181	0xbdc92fbb	-0.09823557
182	0xbcd4c000	-0.025970459
183	0x3c9cca31	0.019139381
184	0x3cedd826	0.029033732
185	0x3d351a58	0.044214576
186	0xbd30414d	-0.043031026
187	0x3b1d97a7	0.002404669
188	0x3d1d0d78	0.038342923
189	0x3d6bdbb3	0.05758257
190	0xbc4bc863	-0.012437913
191	0xbd9fbf3b	-0.07800146
192	0xbd0235ce	-0.031789593
193	0xbd09dfe4	-0.033660784
194	0x3d2e5c55	0.042568523
195	0xbab84e45	-0.0014061412
196	0x3dc6bbbf	0.097037785
197	0x3e34cfea	0.17657438
198	0x3e1a6d9f	0.1508088
199	0x3e91c0e7	0.28467485
200	0x3d04d899	0.032433126
201	0xbcb81919	-0.022472905
202	0x3cc211d5	0.023690144
203	0x3d214dba	0.039380766
204	0xbc2e2246	-0.010628289
205	0x3d9f8ae5	0.07790164
206	0x3a860a18	0.0010226397
207	0x3df1353a	0.1177773
208	0xbc502004	-0.012702946
209	0xbca3dc5a	-0.020002533
210	0x3a47c21c	0.0007620172
211	0x3d35106d	0.044205118
212	0xbb61c7da	-0.0034451396
213	0x3d1642f4	0.036684945
214	0xbb32d9eb	-0.0027290534
215	0xbd07237c	-0.032992825
216	0xbc331180	-0.010929465
217	0xbd1ef431	-0.038807098
218	0xbcc68066	-0.024231147
219	0xbc3d6720	-0.011560231
220	0xbbbc4a5c	-0.005746169
221	0xbc4cdbf6	-0.012503615
222	0xbd150d48	-0.03638962
223	0xbd371ae5	-0.044703383
224	0x3d6e55fb	0.058187466
225	0x3e02934d	0.12751503
226	0x3d828cb0	0.0637449
227	0xbdd86d86	-0.10567765
228	0xbd8a10dc	-0.06741497
229	0xbcf3623e	-0.029709931
230	0xbd9b7e90	-0.07592499
231	0x3ab70eff	0.0013966261
232	0xbda4a947	-0.080400996
233	0xbdae0e77	-0.08498853
234	0xbd1cd3a5	-0.038287777
235	0xbe001aa3	-0.12510161
236	0xbcd31eb3	-0.025771474
237	0x3df3c2f7	0.11902421
238	0xbc6c3af8	-0.014418356
239	0xbcea1010	-0.028572112
240	0x3c594430	0.013260886
241	0x3d61b653	0.05510552
242	0x3d871590	0.065959096
243	0x3d3bb4be	0.045826666
244	0xbc9e53a9	-0.019327002
245	0xbd54fc16	-0.05199822
246	0xbcd93926	-0.026516508
247	0x3d1fe82b	0.039039772
248	0x3cf01e1a	0.029311229
249	0xbbb729ad	-0.005589685
250	0x3d67e52c	0.05661504
251	0x3c626ff6	0.013820639
252	0x3a92fd9c	0.0011214497
253	0x3c66b588	0.014081366
254	0xbd5ee65f	-0.054418918
255	0xbd8b7867	-0.06810074

bias f4 [24]
0	0x3d8a6e3b	0.06759306
1	0x3d3d8289	0.046267066
2	0xbdd9cd99	-0.10634918
3	0x3c64cbe2	0.013964625
4	0xbd193e11	-0.037412707
5	0xbc4ef904	-0.012632612
6	0xbd229e6e	-0.03970187
7	0x3acebcd7	0.0015772831
8	0x3c6eed29	0.014582911
9	0xbd33b618	-0.04387483
10	0x3cc815b6	0.024424415
11	0x3b3a4bd7	0.0028426552
12	0xbdd10dfe	-0.10207747
13	0xbd3b5437	-0.04573461
14	0xbd8672bd	-0.06564853
15	0xbdd6e863	-0.10493543
16	0xbc73b4fc	-0.014874693
17	0x3d359f31	0.04434127
18	0xbbd6d5c3	-0.006556244
19	0x3d344dd7	0.044019546
20	0xbd50afa7	-0.050948765
21	0xbdc2846e	-0.09497915
22	0xbc264439	-0.0101481015
23	0xbd1525bd	-0.036412943
