Module8-AutoEncoder/last_model_cnn.pt (torch, 788213 bytes, 16 tensors)

weight f4 [12, 3, 4, 4]
0	0xbdab623c	-0.08368346
1	0xbdf2b0e2	-0.11850144
2	0x3e0d7748	0.13815033
3	0x3d6561a6	0.056001328
4	0x3d470414	0.048587874
5	0x3e0393fb	0.12849419
6	0xbd18f496	-0.03734263
7	0x3dda0508	0.10645491
8	0x3df62326	0.12018423
9	0xbdc8c1bd	-0.09802578
10	0xbdb322f9	-0.08746905
11	0xbe0ca702	-0.13735583
12	0xbd5fb354	-0.05461438
13	0xbd5adb8a	-0.053432025
14	0x3e26566e	0.16243908
15	0xbdb4d1e6	-0.088290974
16	0xbdf6ec85	-0.12056831
17	0x3dadc6d2	0.084851876
18	0x3e1f0c50	0.1553204
19	0xbd29580d	-0.041343737
20	0xbbe808c1	-0.0070811217
21	0x3dba0612	0.09083189
22	0x3d2f1943	0.0427487
23	0xbdff90e8	-0.124788105
24	0x3e07a890	0.13247895
25	0x3d14d80a	0.036338843
26	0x3aced162	0.0015778954
27	0x3ddac84e	0.10682736
28	0x3e081e38	0.13292778
29	0x3a1712fb	0.0005763021
30	0xbb34a7b5	-0.0027565781
31	0x3dd286db	0.10279628
32	0x3d5af612	0.053457327
33	0x3e246d54	0.1605733
34	0xbd494b1f	-0.049143907
35	0xbd1e7fdb	-0.03869615
36	0x3d595159	0.053056095
37	0x3df7d946	0.121019885
38	0x3e3d8d85	0.18511017
39	0x3dc9a598	0.098460376
40	0x3a5de9af	0.00084653025
41	0x3e424860	0.18972921
42	0xbd204ee1	-0.039137725
43	0x3daa0a2a	0.0830272
44	0x3e22c123	0.15893988
45	0xbd779088	-0.06044057
46	0xbc07d669	-0.008290865
47	0x3e241192	0.16022328
48	0x3e1ea566	0.15492782
49	0x3e314102	0.17309955
50	0xbd4207d5	-0.04737075
51	0x3e1486d2	0.14504555
52	0x3ccd73d5	0.025079647
53	0x3e07ec5d	0.13273759
54	0x3cb4519a	0.022011567
55	0xbdf153f4	-0.11783591
56	0xbda59fc0	-0.080871105
57	0xbcb8363d	-0.0224868
58	0x3e006400	0.12538147
59	0x3e0e8215	0.1391681
60	0xbcba5536	-0.02274571
61	0x3cfa57ae	0.030559387
62	0xbcb4d8ad	-0.022075975
63	0x3d351e66	0.044218443
64	0x3d7ec87a	0.062202908
65	0x3bc829ab	0.006108483
66	0x3e0f211c	0.13977474
67	0xbae33905	-0.0017335719
68	0x3e1e19d7	0.15439545
69	0x3e25d32c	0.16193837
70	0x3e054425	0.13014276
71	0x3d487791	0.048942152
72	0x3cae9756	0.021312397
73	0xbdb13f81	-0.086546905
74	0xbd552f0b	-0.052046817
75	0x3d89c5be	0.067271695
76	0x3e2c3733	0.16817932
77	0x3d6771dd	0.056505073
78	0xbd52b308	-0.05144027
79	0x3df544ae	0.1197599
80	0x3cf7409b	0.030182173
81	0xbd46cca4	-0.048535004
82	0x3ca9c21f	0.020722447
83	0xbd9c35e7	-0.076274686
84	0x3e349993	0.17636709
85	0x3e29967b	0.1656131
86	0xbc332a18	-0.010935329
87	0x3e24de30	0.16100383
88	0x3e20192f	0.15634607
89	0x3da5d853	0.08097901
90	0xbd2d3099	-0.042282674
91	0x3dfc6519	0.1232397
92	0xbcc99364	-0.024606414
93	0xbd839d26	-0.06426458
94	0xbd840261	-0.06445766
95	0x3d0205b4	0.03174372
96	0x3c9cea2a	0.019154627
97	0x3e122deb	0.14275329
98	0x3e3880b9	0.18017854
99	0x3dfff63c	0.12498137
100	0x3e3583a4	0.17725998
101	0xbabad60a	-0.0014254462
102	0x3e615afa	0.22007361
103	0x3e18f968	0.14938891
104	0x3e4d6d44	0.20061213
105	0x3e5e1b19	0.21690024
106	0x3cb39350	0.02192083
107	0x3e07b975	0.1325434
108	0xbd279361	-0.040912036
109	0x3d085398	0.033282846
110	0x3e6ccad2	0.23124245
111	0x3cba237a	0.022721995
112	0xbbfbd202	-0.007684947
113	0xbd617159	-0.055039737
114	0x3e17a556	0.14809164
115	0xbcbc59a8	-0.02299197
116	0x3dda9f66	0.10674934
117	0x3e123cd2	0.14281014
118	0xbcb3d203	-0.021950727
119	0xbdcff22a	-0.10153611
120	0x3dd04df6	0.1017112
121	0xbdac1df7	-0.08404153
122	0x3d99cf3b	0.07510229
123	0x3d7c87f8	0.061653107
124	0xbdd12450	-0.10212004
125	0x3cc3ab71	0.02388546
126	0x3c5bdde8	0.013419606
127	0x3e21d294	0.15802985
128	0xbd4e4c70	-0.050365865
129	0x3ceb0309	0.02868797
130	0xbdacfdd6	-0.08446853
131	0xbdc9faba	-0.098622754
132	0x3da35e77	0.07977002
133	0xbcc757f6	-0.024333935
134	0x3dd98bfb	0.10622402
135	0xbe13756b	-0.1440026
136	0xbd9c878c	-0.07643041
137	0xbdd80742	-0.10548259
138	0xbc360ace	-0.0111109745
139	0xbc6e2935	-0.014536192
140	0xbcaeab44	-0.0213219
141	0x3ce6887c	0.028141253
142	0xbca82baf	-0.020528642
143	0xbe1095c5	-0.14119633
144	0x3d8bafa3	0.068206094
145	0x3d7a8528	0.061162144
146	0xbd598b71	-0.053111497
147	0xbd9678d1	-0.07347263
148	0xbe185f7a	-0.14880171
149	0xbc2e8cfd	-0.010653731
150	0xbd16a82e	-0.036781482
151	0x3dca07c5	0.09864763
152	0xbdfa44a8	-0.122201264
153	0xbe2ab910	-0.16672158
154	0xbd363676	-0.04448553
155	0x3d536bf1	0.051616613
156	0xbd55ef79	-0.052230332
157	0x3dab10b6	0.08352797
158	0xbd85dceb	-0.065362774
159	0xbda8ab5b	-0.082358085
160	0xbcbab4d9	-0.022791313
161	0x3dec38ce	0.11534272
162	0x3caf164c	0.021372937
163	0xbd07496a	-0.033028997
164	0xbe0ba534	-0.13637239
165	0x3db80a6f	0.08986365
166	0xbe05609d	-0.13025136
167	0xbe15f63b	-0.1464471
168	0xbe039594	-0.12850028
169	0x3dcda887	0.1004191
170	0x3dc621a9	0.09674389
171	0xbd90be6c	-0.0706757
172	0xbc345c57	-0.011008344
173	0x3ccac387	0.024751438
174	0xbd98940a	-0.07450111
175	0x3dda4d7a	0.10659309
176	0xbceba479	-0.02876495
177	0xbd98c895	-0.07460133
178	0xbdd652c8	-0.10465008
179	0xbcb91b9a	-0.02259617
180	0x3d06f8e6	0.03295221
181	0xbc5e10e9	-0.013553836
182	0x3d6b26ad	0.05740993
183	0x3e082a02	0.13297275
184	0x3d8b034e	0.0678774
185	0xbda5b407	-0.08090978
186	0x3e0396a4	0.12850434
187	0xbd68e82c	-0.05686204
188	0xbd4e6f4e	-0.050399117
189	0x3e280740	0.16409016
190	0xbd7297d7	-0.059226837
191	0x3e1cb734	0.15304261
192	0xbde887b8	-0.11354011
193	0xbdb1dbbc	-0.08684489
194	0x3db9839c	0.090583056
195	0x3dc76e5f	0.097378485
196	0xbd2c93aa	-0.04213301
197	0xbd9b4aa9	-0.075826
198	0x3b4238f6	0.0029636002
199	0xbd5e8e20	-0.05433476
200	0xbdc1e089	-0.09466655
201	0x3d70abe5	0.05875768
202	0xbd1ced65	-0.038312335
203	0x3dbf49a2	0.09340216
204	0xbd1c55a0	-0.038167596
205	0x3e056d6f	0.13030027
206	0x3c66c13d	0.0140841575
207	0x3d8d4a93	0.068989895
208	0xbd87add7	-0.06624954
209	0xbb89261e	-0.004185452
210	0x3d8d23bc	0.068915814
211	0xbe029f70	-0.12756133
212	0xbd922ad7	-0.07137077
213	0xbd1eccca	-0.03876952
214	0xbc1a1ad5	-0.009405811
215	0xbd7b1abc	-0.061304793
216	0x3d6c08ab	0.057625454
217	0x3c99334e	0.018701222
218	0xbdfcf319	-0.12351055
219	0x3e10e87d	0.14151187
220	0x3cace703	0.021106249
221	0x3d3bcede	0.04585158
222	0x3d53feaf	0.051756557
223	0x3db069f8	0.08613962
224	0xbc958723	-0.018252915
225	0xbd4983b0	-0.049197853
226	0xbdee371f	-0.11631607
227	0xbc9a09be	-0.018803474
228	0xbdebfd71	-0.115229495
229	0x3d63e6f3	0.055640172
230	0x3db5abb0	0.088706374
231	0xbda5a7c8	-0.08088642
232	0xbd8ce5ed	-0.06879792
233	0xbd8db9d3	-0.06920209
234	0xbc3bbca4	-0.01145855
235	0xbd8a15c4	-0.06742433
236	0x3e00c022	0.12573293
237	0x3cc99e59	0.024611639
238	0xbc5863fe	-0.013207434
239	0x3e0fc738	0.1404084
240	0x3db98fce	0.09060632
241	0xbe0a2b9e	-0.13493201
242	0xba730764	-0.00092708156
243	0xbd44ff99	-0.04809532
244	0x3dab7dea	0.083736256
245	0x3d33a2bc	0.043856367
246	0xbd2c2d97	-0.042035665
247	0xbd3f51ae	-0.046708755
248	0x3c41be42	0.011825146
249	0x3d184c0b	0.037181895
250	0xbe19ca71	-0.15018632
251	0x3d731a94	0.05935152
252	0x3da41b4e	0.080130205
253	0xbd7bb972	-0.06145615
254	0xbdbbaca7	-0.0916379
255	0x3daf44ea	0.08558066

bias f4 [12]
0	0x3d73b22b	0.059496086
1	0xbd4b0e6c	-0.0495743
2	0x3ddda7ed	0.10823045
3	0xbd8b88f8	-0.06813234
4	0x3e547b28	0.20750105
5	0x3d8396f3	0.06425276
6	0xbd7d29d8	-0.061807483
7	0xbdfe4419	-0.12415332
8	0x3cb50f1a	0.022101928
9	0x3cc8da46	0.024518143
10	0xbdb964b7	-0.09052413
11	0xbcfab6ca	-0.030604739

weight f4 [24, 12, 4, 4]
0	0x3d97fcf9	0.074212976
1	0x3cc9f545	0.024653086
2	0x3c384fb6	0.011249473
3	0x3d1d77ac	0.038444206
4	0x3da29cb8	0.07940048
5	0xbd68db3c	-0.056849703
6	0xbc8af67f	-0.016963242
7	0x3dba724b	0.09103831
8	0xbbfff460	-0.007811114
9	0xbd470bd6	-0.048595272
10	0x3b08cf88	0.0020875651
11	0xbd0df0c7	-0.03465345
12	0xbd72865c	-0.059210166
13	0xbc60ef1b	-0.013728882
14	0x3d518d37	0.051160064
15	0x3db5ffe7	0.088867
16	0x3ccf5933	0.025311088
17	0xbd33514c	-0.043778703
18	0xbd4ab9ae	-0.049493484
19	0xbd427b30	-0.047480762
20	0x3dc39515	0.095499195
21	0xbd1c744d	-0.03819685
22	0x3d27d343	0.04097296
23	0x3d51d31a	0.051226713
24	0xbdaf3537	-0.08555072
25	0xbd89bc16	-0.06725328
26	0x3d4c85ce	0.049932294
27	0x3d4dc200	0.05023384
28	0xbd5adb70	-0.05343193
29	0xbd781172	-0.060563512
30	0x3db3262d	0.08747516
31	0x3d20a07b	0.039215546
32	0x3d712dbf	0.058881517
33	0x3b5cbf06	0.0033683195
34	0xbd920e5d	-0.07131646
35	0xbce085b2	-0.0274075
36	0x3d8fae9b	0.07015725
37	0x3d9a41c0	0.07532072
38	0xbd679692	-0.05654008
39	0x3d1ed249	0.038774762
40	0xbda8168d	-0.08207426
41	0xbd643051	-0.05571014
42	0x3c0ca084	0.008583192
43	0x3d4a1675	0.049337823
44	0xbd899ceb	-0.06719383
45	0xbda21fd6	-0.079162285
46	0x3d9c9747	0.07646041
47	0xbb14bef5	-0.0022696827
48	0xbc9c1082	-0.01905084
49	0xbd7b4948	-0.061349183
50	0xbd1a02b9	-0.037600253
51	0x3d30b212	0.04313857
52	0xbde6e0cf	-0.112733476
53	0xbd169c57	-0.03677019
54	0xbbf6c9c1	-0.007531375
55	0x3d6e7691	0.058218542
56	0xbce35ec4	-0.027755149
57	0x3d42032e	0.047366314
58	0x3d0f1c0b	0.034938853
59	0x3cefc9c5	0.029271016
60	0x3d91b47d	0.071145035
61	0x3d080529	0.033208046
62	0x3d357082	0.04429675
63	0x3c9bc44f	0.019014506
64	0x3da60882	0.081070915
65	0x3dcd90fb	0.100374185
66	0x3d3e28cf	0.046425637
67	0x3ddeb706	0.10874753
68	0x3d5518bc	0.05202554
69	0x3ba45a07	0.005015615
70	0x3d5d96c9	0.054098878
71	0x3e23812b	0.15967242
72	0xbbb3441a	-0.005470765
73	0x3ce8ddb4	0.028426029
74	0x3cbce244	0.02305711
75	0x3d16a257	0.036775913
76	0xbbbbaa9c	-0.0057271253
77	0x3e253aeb	0.16135757
78	0x3e296312	0.16541699
79	0x3de88533	0.11353531
80	0xbda5d838	-0.08097881
81	0x3ce42c59	0.027853178
82	0x3c9b3708	0.01894714
83	0xbd536725	-0.05161204
84	0xbc98a2ea	-0.018632371
85	0x3db1c6ba	0.08680482
86	0x3bb6429b	0.005562139
87	0x3ce23a49	0.027615683
88	0x3d64ff5b	0.05590759
89	0x3d42decf	0.047575768
90	0xbca72e32	-0.02040777
91	0x3d1e3f41	0.038634542
92	0x3d5e49da	0.05426965
93	0x3c873f69	0.016509729
94	0x3dae1f04	0.085020095
95	0xbd8f756f	-0.070048206
96	0x3d060189	0.032716308
97	0x3d1cdd37	0.038296904
98	0xbbbab7a7	-0.0056981626
99	0xbd399062	-0.04530371
100	0xbdb3a6c7	-0.08772045
101	0x3ba69ed2	0.005084851
102	0xbd2d6ef4	-0.04234214
103	0xbc6da611	-0.014504925
104	0xbc8952c2	-0.016763095
105	0x3dc06302	0.09393884
106	0x3c6c331b	0.014416481
107	0xbcebd9e0	-0.028790414
108	0xbbbd8555	-0.0057837167
109	0xbc787e31	-0.015166805
110	0x3d2ac303	0.041689884
111	0x3a8f2142	0.0010919946
112	0x3c443206	0.011974817
113	0xbd07043d	-0.032963026
114	0xbc3667ac	-0.011133116
115	0x3c4b042d	0.012391132
116	0x3cd3a2fe	0.025834557
117	0x3c2aaee1	0.010417671
118	0x3d9c4047	0.076294474
119	0x3deb2d8a	0.11483295
120	0xbe02db9b	-0.12779085
121	0xbe36d35e	-0.17854068
122	0x3c276a36	0.010218194
123	0x3dcacf52	0.099028245
124	0xbdece405	-0.11566929
125	0xbe027efa	-0.1274375
126	0x3ce8320d	0.028344179
127	0x3e4d6738	0.20058906
128	0xbd10e829	-0.035377655
129	0xbd2a32e5	-0.041552443
130	0x3d7e2160	0.062043548
131	0x3d62213b	0.055207472
132	0xb9e6fdfc	-0.00044058252
133	0x3c8b6da3	0.017020052
134	0xbd38488b	-0.044991057
135	0xbd55027d	-0.052004326
136	0x3d4079da	0.046991207
137	0x3d209595	0.039205153
138	0x3cac403b	0.021026721
139	0xbd738dbd	-0.059461344
140	0x3d6fbe8a	0.05853132
141	0x3d0eb80c	0.03484349
142	0xbd06ddaa	-0.03292624
143	0xbbadd7c4	-0.0053052623
144	0x3d91eb86	0.07125001
145	0xbc5a5fb3	-0.0133284805
146	0x3d3f0184	0.046632305
147	0x3d195d53	0.037442517
148	0x3dc04585	0.0938826
149	0x3d1be3a9	0.03805891
150	0xbca28735	-0.019839862
151	0x3d68575e	0.056723945
152	0xbc072c11	-0.008250252
153	0xbcefdb7e	-0.029279467
154	0x3cf1ec77	0.0295317
155	0xbd4cf301	-0.050036434
156	0xbc8f2b8e	-0.017476823
157	0x3d8fae01	0.070156105
158	0xbd104f8c	-0.03523211
159	0xbdd8f7e1	-0.10594154
160	0xbd90433a	-0.070440724
161	0xbd0b44e5	-0.03400125
162	0x3c17e26e	0.009270294
163	0xbd833ea5	-0.06408433
164	0xbd7fc7ae	-0.06244629
165	0xbd293c0b	-0.041317027
166	0xbd4b7d30	-0.049679935
167	0xbbf283fc	-0.0074009877
168	0xbccba637	-0.02485953
169	0xbce80604	-0.028323181
170	0xbd690de5	-0.056898016
171	0xbd92d986	-0.071703956
172	0xbc943e97	-0.018096251
173	0x3da3ff0c	0.08007631
174	0x3d58b0bc	0.052902922
175	0xbd13d5ec	-0.036092684
176	0xbd2a704e	-0.04161101
177	0xbd43008d	-0.047607947
178	0x3bd2aef1	0.006429546
179	0x3d2636ce	0.04057961
180	0x3d06360b	0.032766383
181	0xbc8f7d88	-0.017515913
182	0x3d5f9454	0.054584816
183	0xbd6153ef	-0.055011686
184	0x3d77a712	0.060462065
185	0x3e07c5bd	0.13259025
186	0x3c4acea7	0.012378371
187	0xbcb7f96f	-0.022457806
188	0x3d2b9a12	0.04189498
189	0x3d614be4	0.055004016
190	0x3d78f754	0.060782745
191	0xbd8bc948	-0.06825501
192	0xbd959831	-0.07304419
193	0x3c4430cf	0.0119745275
194	0x3d210e78	0.03932044
195	0xba97d81a	-0.0011584789
196	0xbcbb9cb6	-0.022901874
197	0xbd1718b2	-0.036888786
198	0x3de9e69d	0.11420939
199	0xbcc7a67e	-0.024371382
200	0xbcd5767a	-0.02605747
201	0xbc3603b3	-0.01110928
202	0x3dcaab14	0.09895912
203	0x3ca2870b	0.019839784
204	0xbdd46977	-0.10371678
205	0xbd20e517	-0.039280977
206	0xbd6664cc	-0.05624847
207	0x3cae0482	0.021242384
208	0x3cca1208	0.024666801
209	0x3c6083be	0.013703285
210	0x3d99a880	0.07502842
211	0xbd80b85a	-0.06285162
212	0xbd322316	-0.04349049
213	0x3d207f41	0.03918386
214	0x3dabaf75	0.08383075
215	0x3d8f3074	0.069916636
216	0x3d39b3ba	0.045337416
217	0x3d6238c5	0.05522992
218	0x3dec2c6b	0.115319096
219	0xbd032867	-0.032020953
220	0xbd7dd322	-0.06196893
221	0xbce47267	-0.027886583
222	0x3d14118e	0.036149554
223	0x3cda933c	0.026681535
224	0xbd7ed6dd	-0.06221663
225	0x3d839ec7	0.06426769
226	0x3d988a82	0.07448293
227	0x3d5f8733	0.054572295
228	0x3cef13b1	0.029184194
229	0x3d1cbc62	0.038265593
230	0x3d98d816	0.0746309
231	0xbd41f387	-0.047351386
232	0x3d8a689a	0.067582324
233	0x3b8a9515	0.0042291977
234	0x3e0369ec	0.12833375
235	0xbca56663	-0.020190423
236	0xbdcacb0a	-0.09902008
237	0xbd90fe15	-0.07079712
238	0x3b0b0a4c	0.0021215854
239	0xbcef967b	-0.02924656
240	0x3d8fb1e9	0.070163555
241	0x3d82726c	0.063694805
242	0xbc381a60	-0.011236757
243	0x3d4761eb	0.048677366
244	0x3db144fc	0.08655736
245	0xbc393d36	-0.011306098
246	0xbd5f6d4a	-0.054547586
247	0xbad08c2f	-0.0015910919
248	0x3dc2e02f	0.09515416
249	0x3da1bc83	0.07897284
250	0xbd118d22	-0.035534985
251	0x3c216665	0.009851073
252	0x3d924e74	0.0714387
253	0x3ca9a8ee	0.020710435
254	0x3c9fd332	0.019509885
255	0xbd47961e	-0.048727147

bias f4 [24]
0	0x3d994a16	0.07484834
1	0x3c13e657	0.009027085
2	0x3c94d980	0.018170118
3	0xbc5d2560	-0.01349768
4	0xbdd7d447	-0.105385356
5	0x3bead3ca	0.0071663605
6	0xbc874b26	-0.016515326
7	0xbd926e09	-0.07149894
8	0x3d674c9a	0.056469537
9	0x3d90273a	0.07038732
10	0xbd6a41b4	-0.057191566
11	0x3d628eec	0.055312082
12	0x3cb3fa1b	0.021969846
13	0x3c750fd6	0.014957389
14	0x3dec23e1	0.11530281
15	0xbd3e863c	-0.046514735
16	0xbd4edbd6	-0.05050262
17	0x3cfd9d13	0.030958688
18	0x3b650240	0.0034943968
19	0xbcdbb1ad	-0.02681812
20	0xbe0c24ad	-0.13685866
21	0xbd377c43	-0.04479624
22	0xbd2f5e2b	-0.042814415
23	0x3ddc0b92	0.10744394

weight f4 [48, 24, 4, 4]
0	0xbcc2804f	-0.023742823
1	0x3c1d0254	0.009583075
2	0xbd3507cc	-0.04419689
3	0xbccb0e4a	-0.024787087
4	0xbd04ff0f	-0.032469805
5	0xbcf272ef	-0.02959582
6	0x3d27649d	0.040867437
7	0x3cd97e41	0.02654946
8	0xbd365087	-0.04451039
9	0xbd4d3679	-0.050100777
10	0x3d16b276	0.036791287
11	0xbd25b31c	-0.040454015
12	0xbcb48f16	-0.022040885
13	0x3cf996a2	0.030467335
14	0x3cac0391	0.020997794
15	0x3c1822c0	0.009285629
16	0xbd04f4aa	-0.032459892
17	0xbd1fb843	-0.038994085
18	0x3acf6ddb	0.0015825586
19	0x3cb18bb5	0.021673063
20	0xbd347828	-0.044059902
21	0x3bfa6374	0.0076412503
22	0xbcc8f45b	-0.02453058
23	0x3cc87787	0.024471058
24	0xbd29ce55	-0.04145654
25	0xbd036f70	-0.032088697
26	0xbcffe806	-0.031238567
27	0x3c647ba7	0.013945497
28	0x3cfb2400	0.030656815
29	0xbd5d81df	-0.054078933
30	0x3c80b72e	0.015712347
31	0xbb17a128	-0.0023136828
32	0x3c5759db	0.013143982
33	0xbd3dc177	-0.04632708
34	0xbbed9fc9	-0.007251714
35	0xbc6bac83	-0.014384392
36	0xbd68df7e	-0.056853764
37	0xbc894b6c	-0.016759597
38	0x3bb9999f	0.005664065
39	0x3cd9265d	0.02650755
40	0xbd081d9a	-0.033231355
41	0xbd5d0625	-0.053960938
42	0xbbb18331	-0.0054172506
43	0xbd06695d	-0.032815326
44	0xbd05b891	-0.03264672
45	0xbd1def97	-0.03855857
46	0xbc47d981	-0.012197853
47	0x3cba923a	0.022774804
48	0xbb391f02	-0.0028247242
49	0x3cee4c5d	0.029089147
50	0x3c3d9991	0.011572258
51	0xbd62522f	-0.055254158
52	0xbd4e2bc2	-0.0503347
53	0x3c3b6a32	0.011438893
54	0x3d1d2e99	0.038374517
55	0xbcbda870	-0.023151606
56	0x3cfad163	0.030617421
57	0x3d1d7055	0.038437206
58	0x3d405d3d	0.04696392
59	0xbd19a07c	-0.037506565
60	0xbce76bea	-0.0282497
61	0x3c7e20ea	0.015510777
62	0x3d4cfd1a	0.050046064
63	0x3cc49ebc	0.024001472
64	0xbd057108	-0.032578498
65	0xbc8e5f62	-0.017379466
66	0xbd6c04dc	-0.05762182
67	0xbd2dd1ff	-0.042436596
68	0xbd3be0f3	-0.045868825
69	0xbd09afed	-0.03361504
70	0x3ca98f54	0.020698227
71	0xbd3bb4c2	-0.04582668
72	0xbc10e6c3	-0.00884408
73	0x3d037cce	0.032101445
74	0xbb42f652	-0.002974887
75	0xbd1a4569	-0.03766385
76	0x39be7a15	0.00036330582
77	0x3d52b1c7	0.051439073
78	0x3ce08b25	0.0274101
79	0xbcfaa650	-0.030596882
80	0xbd282045	-0.0410464
81	0xbbb0b03f	-0.005392104
82	0x3c8a3879	0.016872631
83	0xbcd012a1	-0.025399508
84	0x3c9b9304	0.018991001
85	0x3d1c72ea	0.038195528
86	0xbc268dba	-0.010165626
87	0x3d398dc9	0.045301232
88	0xbd206bd9	-0.03916535
89	0x3aa783cd	0.0012780369
90	0xbd1c4a78	-0.038156956
91	0xbcb870e5	-0.02251477
92	0x3d054ae2	0.032542117
93	0x3cacc8f1	0.02109191
94	0x3d48084b	0.048836034
95	0xbcb7040b	-0.022340795
96	0xbcf3879f	-0.029727755
97	0x3d232a2c	0.03983514
98	0xbb847080	-0.0040417314
99	0xbd2ea47d	-0.042637337
100	0x3a0b61ec	0.00053170207
101	0xbc10d20c	-0.008839142
102	0x394ccf7a	0.00019532247
103	0xbd415765	-0.047202487
104	0x3c6ca160	0.014442772
105	0xbd315557	-0.043294277
106	0xbd575827	-0.052574303
107	0xbca26b76	-0.019826632
108	0x3af46453	0.0018645622
109	0x3cc1cb5a	0.023656536
110	0x3ac5c893	0.0015089683
111	0x3d586f01	0.052840237
112	0x3cd458c6	0.025921237
113	0xbd42d448	-0.04756573
114	0x3ca1e2c3	0.019761449
115	0xbba4e94f	-0.0050326954
116	0x3d360be8	0.04444495
117	0x3cd86f50	0.026420265
118	0xbbbe9ef5	-0.005817289
119	0xbca6ef68	-0.02037783
120	0x3d300be1	0.04298008
121	0x3ce186dc	0.027530126
122	0x3c1445d3	0.0090498505
123	0x3cc41e77	0.023940308
124	0xb9b5f3d1	-0.00034704668
125	0xbbb4979e	-0.0055112382
126	0x3b0c2094	0.0021381723
127	0x3d2565b5	0.0403802
128	0xbaae71ff	-0.001330912
129	0x3d29acef	0.041424688
130	0xbd2bb845	-0.04192378
131	0xbd7f91e7	-0.062395003
132	0xbd47537f	-0.048663612
133	0xbcd47d17	-0.025938554
134	0xbc77fa17	-0.01513531
135	0x3cf17f07	0.029479517
136	0xbca1bab2	-0.019742344
137	0x3d481b30	0.048854053
138	0x3c9e8d56	0.019354504
139	0x3cde03c3	0.027101403
140	0x3c0be9bc	0.008539613
141	0xbcc2bfc2	-0.023773078
142	0x3c205f40	0.009788334
143	0x3c3a1a65	0.011358832
144	0xbd5cb36d	-0.05388205
145	0xbd29e8fe	-0.041481964
146	0xbcfd3e29	-0.03091343
147	0xbcefd22f	-0.029275028
148	0x3cb2830a	0.021791
149	0xbd056841	-0.032570127
150	0xbc93b56c	-0.018030845
151	0x3c48af75	0.0122488635
152	0xbd0ba4da	-0.03409276
153	0xbce4650a	-0.02788021
154	0xbc20c7c8	-0.009813257
155	0xbbffaa9d	-0.007802321
156	0xbcf2577c	-0.029582731
157	0xbd79f70a	-0.06102661
158	0x3d1010d7	0.03517231
159	0xbd343879	-0.04399917
160	0xbce23894	-0.02761487
161	0x3d1d9f6c	0.038482115
162	0x3d4410c5	0.047867555
163	0x3cad7add	0.02117675
164	0x3b7b1746	0.0038313433
165	0x3cdf9406	0.027292263
166	0x3d2c3087	0.042038467
167	0x3d717cff	0.058957096
168	0xbce44125	-0.027863095
169	0x3d106949	0.035256658
170	0x3c97bf59	0.018523859
171	0x3d7baa7d	0.061441887
172	0xb9f82406	-0.00047329086
173	0xbd0ae4d6	-0.03390964
174	0xbd12b8f8	-0.03582093
175	0xbcbf848a	-0.02337863
176	0xbd0ee490	-0.034885943
177	0x3c18fbd1	0.009337381
178	0x3d0adca4	0.033901826
179	0xbcbf7dcf	-0.02337542
180	0x3d318eeb	0.043349188
181	0x3b3069d7	0.0026918554
182	0x3cd31951	0.025768908
183	0xbbfc3595	-0.007696817
184	0x3bf66530	0.0075193867
185	0x3d4f8830	0.050666988
186	0x3c114fa4	0.008869085
187	0x3d16ae52	0.03678734
188	0xbd4cb246	-0.049974702
189	0xbc4c2c14	-0.012461681
190	0x3d0d73e7	0.03453436
191	0xbbd4ce44	-0.0064943153
192	0x3cc883e8	0.02447696
193	0xbc51e697	-0.012811325
194	0x3d52783b	0.051384192
195	0x3d92ddad	0.071711875
196	0xbca43100	-0.020042896
197	0xbd9f2153	-0.07770028
198	0xbd97c7f9	-0.07411189
199	0x3d0ee52e	0.03488653
200	0xb951e77b	-0.00020018026
201	0xbd8c6a5c	-0.06856224
202	0xbd0c28ad	-0.03421848
203	0xbd0f50c1	-0.034989122
204	0xbcd3a583	-0.025835758
205	0xbc738eec	-0.014865618
206	0x3d05b066	0.03263893
207	0x3c33cd60	0.010974258
208	0xbd3c1bd2	-0.04592497
209	0x3c86a67e	0.016436812
210	0xbcedd5d7	-0.02903263
211	0xbd29b7a0	-0.041434884
212	0xbd486a96	-0.048929773
213	0xbd71ec89	-0.059063468
214	0x3c733a12	0.014845388
215	0xbc0bffef	-0.008544906
216	0x3d1c2ce4	0.03812875
217	0xbd3a3ce7	-0.045468237
218	0x3c16ee01	0.009212018
219	0x3c93ee6d	0.018058026
220	0xbb5ef84c	-0.0034022508
221	0xbcf421f9	-0.029801356
222	0x3c0ddb2a	0.00865821
223	0x3cf3344a	0.02968802
224	0x3c62b3e7	0.013836837
225	0x3cdb6dee	0.026785817
226	0x3cb2ad3a	0.021811116
227	0x3cc1431c	0.02359157
228	0x3cd91263	0.026498025
229	0x3c1ae721	0.0094545195
230	0xbd208b2d	-0.03919523
231	0xbd0c66d0	-0.034277737
232	0xbd43c7bb	-0.0477979
233	0x3d77f498	0.060535997
234	0xbc4e5e5f	-0.012595742
235	0x3cb00702	0.021487717
236	0xbd38d6f8	-0.045126885
237	0xbbddea3d	-0.006772308
238	0xbd6b1e2f	-0.057401832
239	0xbc89bdeb	-0.016814193
240	0xbd4a622c	-0.04941003
241	0x3d17dc5b	0.03707538
242	0x3ac1da0e	0.0014789717
243	0x3d36c8ee	0.044625215
244	0x3c23ad22	0.009990009
245	0xbc70a688	-0.014688142
246	0x3d9068da	0.07051249
247	0xbca30469	-0.019899564
248	0x3ac3f177	0.0014949281
249	0x3cf52281	0.02992368
250	0x3d5ad51c	0.053425893
251	0xbc916f97	-0.017753405
252	0x3ca02e83	0.019553429
253	0x3c8ec740	0.017428994
254	0xbbf8181a	-0.0075712325
255	0xbc0c82bf	-0.008576094

bias f4 [48]
0	0x3b499f18	0.0030764993
1	0x3d976e6d	0.07394109
2	0xbd200e21	-0.039075974
3	0xbd589afe	-0.052882187
4	0xbca23086	-0.019798528
5	0xbd61cf10	-0.05512911
6	0xbd33f83f	-0.043937918
7	0xbc0dae99	-0.008647584
8	0x3d8b3f80	0.06799221
9	0xbb1d8919	-0.0024038015
10	0x3d418002	0.04724122
11	0x3cc114ff	0.023569582
12	0xbd5d4e90	-0.05403
13	0x3c87fbf3	0.016599631
14	0xbb858562	-0.0040747384
15	0xbd88aeb7	-0.06673949
16	0xbd03404d	-0.032043744
17	0xbc1d50c6	-0.009601777
18	0xbc60d0ab	-0.013721625
19	0x3cd87e4b	0.026427409
20	0x3c842cdb	0.01613467
21	0x3d783862	0.060600646
22	0xbd68c7e3	-0.05683125
23	0xbd441ca3	-0.047878873
24	0xbd5bcea0	-0.05366385
25	0xbb5b51ca	-0.0033465498
26	0xbba21450	-0.004946269
27	0x3cda1436	0.026620965
28	0x3d89e60f	0.06733333
29	0xbd13724a	-0.035997666
30	0xbda8ded3	-0.08245625
31	0x3d053c95	0.03252848
32	0x3b64ffbb	0.0034942466
33	0x3db3ea0c	0.08784875
34	0xbc8f7579	-0.01751207
35	0x3b14cce9	0.0022705144
36	0x3d873e6b	0.06603702
37	0xbc5bc9e3	-0.013414833
38	0xbda54e16	-0.08071534
39	0x3b5ec8ca	0.0033994191
40	0x3c07d05d	0.008289424
41	0x3b6e0fe1	0.0036325383
42	0xbbadd2d9	-0.005304676
43	0x3c00e656	0.007867416
44	0xbcc1df3e	-0.02366602
45	0x3d401d50	0.046902955
46	0x3c99a9cd	0.018757725
47	0xbcb4c4f3	-0.022066569

weight f4 [96, 48, 4, 4]
0	0x3d5525ab	0.052037876
1	0xbccbd320	-0.024880946
2	0xbce51e69	-0.027968602
3	0x3cd6ee3d	0.026236648
4	0x3d084f47	0.03327873
5	0xbc371cf5	-0.0111763375
6	0xbb448410	-0.0029985942
7	0xbd2b9293	-0.04188783
8	0xbbacab0e	-0.0052694147
9	0x3d030d08	0.03199485
10	0x3c11da27	0.008902109
11	0xbc12b0ce	-0.008953286
12	0xbba2ce71	-0.0049684574
13	0xbc92974f	-0.017894415
14	0x3d0b4146	0.033997796
15	0x3bfabd6d	0.007651976
16	0xbbbaf698	-0.005705666
17	0x3c7dfbf2	0.015501963
18	0xbc985f0d	-0.018600011
19	0x3c233efa	0.009963745
20	0x3c067b2d	0.008208078
21	0x3cb532c6	0.022118937
22	0xbcd1dec4	-0.025618918
23	0xbc9740e8	-0.018463567
24	0x3bca4a3b	0.0061733997
25	0x3d5c803d	0.053833235
26	0x3d3796f1	0.044821683
27	0x3b41c145	0.002956466
28	0xbce25fcd	-0.027633572
29	0xbbe3c5d4	-0.006951073
30	0xbc010982	-0.007875802
31	0xbca496e1	-0.020091476
32	0xbccef1a3	-0.025261706
33	0x3c953eee	0.018218484
34	0x3cfce21f	0.030869542
35	0x3c430d39	0.011905008
36	0x3c176729	0.009240904
37	0x3d24fb14	0.04027851
38	0x3caf08be	0.021366473
39	0xbc529f24	-0.012855325
40	0xbc658474	-0.01400863
41	0xbc7ba5b3	-0.01535933
42	0x3bd2253c	0.00641313
43	0xbccb3280	-0.024804354
44	0x3bdfff82	0.006835879
45	0xbcb0e33e	-0.021592733
46	0xbcf63934	-0.030056573
47	0x3c524cc0	0.012835681
48	0x3c46d789	0.0121363485
49	0x3cf4a251	0.029862555
50	0xbcae6a21	-0.02129084
51	0x3c402ec9	0.011729904
52	0x3d21fa6f	0.039545473
53	0x3d8331a0	0.064059496
54	0x3d42565e	0.047445647
55	0x3ce9a091	0.028518947
56	0xbb039a7d	-0.0020081096
57	0x3ce817ce	0.028331663
58	0x3d4c5ff4	0.049896196
59	0x3c916b22	0.01775128
60	0xbcebd406	-0.028787624
61	0x3bc8c874	0.0061274115
62	0x3d5658c7	0.05233076
63	0xbccb6210	-0.024827033
64	0x3c1cb71e	0.009565143
65	0xbd276976	-0.04087206
66	0x3bb0723d	0.005384712
67	0xbcfef496	-0.031122487
68	0xbc8279da	-0.015927244
69	0xbc0ae45e	-0.008477299
70	0xbce071fc	-0.027398102
71	0xba91b9b4	-0.0011117966
72	0x3c0a2a7e	0.0084329825
73	0x3ba1c088	0.0049362816
74	0xbd28c4dc	-0.041203365
75	0xbcfd5ede	-0.030929025
76	0x3d06c3db	0.032901626
77	0xbd068eb5	-0.03285094
78	0xbc5fd264	-0.013661001
79	0xbca9b96b	-0.020718297
80	0x3ce8c236	0.02841292
81	0x3d19aaad	0.037516285
82	0xbbe4ab82	-0.006978453
83	0x3be28e82	0.006913961
84	0x3d00809d	0.031372655
85	0x3d46eb51	0.04856426
86	0x3c502936	0.012705138
87	0xbd1326c5	-0.035925645
88	0x3d4c0820	0.049812436
89	0xbce56038	-0.027999982
90	0x3ba0e9d4	0.004910687
91	0xbcf44f76	-0.029823046
92	0x3b4be6ec	0.0031112982
93	0x3c1a990b	0.009435902
94	0xbcc0984a	-0.023510117
95	0xbd6fea48	-0.058573037
96	0x3d3b69e3	0.04575528
97	0x3b0ba7e2	0.0021309783
98	0x3c0861e8	0.008324124
99	0x3c24f3ae	0.010067863
100	0x3d5e670b	0.05429749
101	0x3cb1436d	0.021638596
102	0x3d1d8fb5	0.038467128
103	0x3cc1f74d	0.023677493
104	0xbcaadb12	-0.020856414
105	0x3b0b3409	0.0021240732
106	0x3cb038dc	0.021511488
107	0xbd3e5a17	-0.046472635
108	0xbbcdfa43	-0.006285937
109	0x3cc6c4d9	0.024263786
110	0x3c8b4fc4	0.017005809
111	0xbceb3af5	-0.028714636
112	0xbb85224e	-0.0040629273
113	0x3d1c3ba5	0.03814282
114	0x3d17f37f	0.03709745
115	0xbd18bc14	-0.03728874
116	0xbc4cd869	-0.012502768
117	0x3d3e0a26	0.046396397
118	0xba928afb	-0.0011180335
119	0xbb7f7c39	-0.0038983955
120	0xb98a60a7	-0.00026393423
121	0x3ce5a500	0.02803278
122	0x3d037f3b	0.03210376
123	0x3c17e2ae	0.009270353
124	0xbcdb9238	-0.026803121
125	0x3c2ef502	0.010678532
126	0x3bcdef80	0.006284654
127	0xbcd03f29	-0.025420742
128	0x3d30ccf6	0.043164216
129	0xbc65f83a	-0.014036233
130	0xbcf7f80e	-0.030269649
131	0xbc058afd	-0.008150813
132	0x3d40c553	0.047063183
133	0x3d18f01c	0.03733836
134	0x3c9c6e80	0.01909566
135	0xbcf170fb	-0.029472819
136	0xbd277a23	-0.040887963
137	0x3b9e6def	0.0048348824
138	0xba9380fa	-0.0011253648
139	0x3be583b3	0.007004225
140	0x3cdb7975	0.026791314
141	0x3c9123db	0.017717293
142	0xbbe824fb	-0.0070844865
143	0xbd2f5a5e	-0.04281079
144	0x3d652d50	0.055951416
145	0x3bede793	0.007260272
146	0xbcfe2f34	-0.031028368
147	0x3cd8e11d	0.02647453
148	0xbaf2a579	-0.001851245
149	0x3c7b5f74	0.015342582
150	0x3beb115d	0.0071737007
151	0x3a8c8bf8	0.0010722866
152	0xbcd40a71	-0.025883885
153	0xbca68308	-0.020326152
154	0xbd53d28e	-0.051714472
155	0xbd1b7fa0	-0.03796351
156	0x3bb1729e	0.0054152748
157	0xbc369a47	-0.011145181
158	0xbcd07cf3	-0.025450205
159	0xbd2b2b0b	-0.041789096
160	0x3ca27a9c	0.019833855
161	0xbc44e621	-0.012017758
162	0x3d145e91	0.036222998
163	0xbc49c24e	-0.012314392
164	0x3ce381d6	0.027771872
165	0xbc7e13d9	-0.015507662
166	0x3b4f4c8d	0.0031631321
167	0x3c45d125	0.01207379
168	0xbc8e1d5c	-0.017347984
169	0xbd372719	-0.04471502
170	0x3c5d2f88	0.013500102
171	0xbd6e0f88	-0.05812028
172	0x3d011720	0.031516194
173	0x3c80895e	0.015690502
174	0xbce32a0c	-0.02773001
175	0xbccaba2c	-0.024746977
176	0xbba26894	-0.0049563143
177	0x3cbcc3d1	0.023042591
178	0x3d199c8b	0.037502807
179	0xbc75e018	-0.015007041
180	0x3d4b0ecf	0.04957467
181	0x3d84b90e	0.06480609
182	0x3d3d1f03	0.046172153
183	0x3c4b309a	0.012401724
184	0xbd0705e1	-0.03296459
185	0x3c9e0b29	0.019292431
186	0x3d142efc	0.03617762
187	0xbcd5fe37	-0.026122196
188	0x3b1f809b	0.002433813
189	0xbb804c0a	-0.0039153146
190	0x3cc754bf	0.024332402
191	0x3b50fca6	0.0031888871
192	0x3d42a59c	0.04752122
193	0x3d0389ec	0.032113954
194	0x3d623883	0.055229675
195	0x3c8ffcc3	0.01757658
196	0xbb7c9cb5	-0.0038545553
197	0xbc54803d	-0.0129700275
198	0x3d23079f	0.03980219
199	0xbcb029e0	-0.021504343
200	0xbccc3d03	-0.024931436
201	0xbc567760	-0.013089985
202	0x3cafbafb	0.021451464
203	0xbc08f297	-0.008358619
204	0x3d117364	0.035510436
205	0x3c7ad924	0.015310559
206	0x3c7d7edf	0.015472143
207	0xbc812e9d	-0.015769297
208	0x3d0a5bce	0.033778958
209	0x3d1a554b	0.037678998
210	0xbceacff5	-0.028663615
211	0x3cc6402b	0.02420052
212	0xbd1789a3	-0.036996495
213	0x3d480456	0.04883226
214	0x3cb8283a	0.022480119
215	0xbc8dfb3e	-0.017331716
216	0x3c99b02b	0.018760761
217	0xba093272	-0.0005233652
218	0x3d056606	0.032568
219	0x3ce6d727	0.028178765
220	0xbccffeb7	-0.025390012
221	0xbcd81b48	-0.026380196
222	0x3cb41fa7	0.02198775
223	0x3ccbec37	0.02489291
224	0xbb889a67	-0.004168797
225	0xbc8e5bce	-0.01737776
226	0x3caac66c	0.020846568
227	0xbc0d56cc	-0.008626651
228	0x3d03f058	0.03221163
229	0x3d7253e0	0.05916202
230	0xbc41c869	-0.011827567
231	0x3c174f60	0.009235233
232	0xbbe8a261	-0.007099435
233	0x3cca5dfb	0.024703017
234	0xbb224bc5	-0.00247644
235	0x3c87ff41	0.016601207
236	0xbc908a67	-0.01764412
237	0x3c89fe0e	0.016844776
238	0xbccef860	-0.025264919
239	0xbd22a8fb	-0.039711934
240	0x3d604775	0.054755647
241	0x3a41af31	0.0007388471
242	0x3b179519	0.002312964
243	0xba6909cf	-0.0008889706
244	0xbc953e5b	-0.01821821
245	0xbc9a8947	-0.018864287
246	0x3cbb5b68	0.022870734
247	0xbc8c0567	-0.01709242
248	0xbcf2e87d	-0.029651875
249	0x3d002ad7	0.031290855
250	0xbc0f0630	-0.008729503
251	0x3ccce4e6	0.025011491
252	0xb9b413bc	-0.0003434698
253	0x3d41d252	0.047319718
254	0xbcbc860e	-0.023013141
255	0xbcf61c98	-0.030042931

bias f4 [96]
0	0xbd3913a8	-0.04518476
1	0x3d401176	0.046891652
2	0xbc30466c	-0.010758977
3	0xbcab5522	-0.020914618
4	0x3d211501	0.03932667
5	0xbd401a4c	-0.04690008
6	0xbbd4d96c	-0.0064956453
7	0x3d99e665	0.075146474
8	0xbbf0cf55	-0.0073489347
9	0xbd48fc77	-0.049068894
10	0x3d83e24c	0.06439647
11	0xbd512dcf	-0.051069077
12	0xbc86e9be	-0.016468879
13	0xbce4496b	-0.02786704
14	0xbd4552be	-0.048174612
15	0x3b9eb40f	0.004843242
16	0x3cdb9cf4	0.02680824
17	0x3d25362a	0.040334858
18	0xbbe15666	-0.0068767546
19	0xbd40d59f	-0.047078725
20	0xbcfc5de5	-0.030806491
21	0x3cb93078	0.02260612
22	0xbb30f122	-0.0026999195
23	0xbd3bcc46	-0.045849107
24	0x3c975cc8	0.018476859
25	0x3c0b0d4a	0.008487055
26	0xbcdbba37	-0.026822193
27	0xbcaad485	-0.02085329
28	0xbd393795	-0.045219023
29	0xbd5ee3ca	-0.054416455
30	0x3dadf7a0	0.08494496
31	0xbbce0713	-0.0062874644
32	0xbc4054c7	-0.0117389625
33	0xbd1148a2	-0.03546966
34	0x3d1d1120	0.03834641
35	0x3d543254	0.05180581
36	0xbc4c68ed	-0.012476188
37	0xbcc91dd2	-0.024550352
38	0xbb80045f	-0.003906771
39	0xbd8bae6c	-0.06820378
40	0x3c3f898a	0.011690507
41	0xbd806fda	-0.06271334
42	0xbdd0344f	-0.10166227
43	0x3cc72bba	0.024312843
44	0x3d41b523	0.047291886
45	0x3e1b69ed	0.15177126
46	0x3b78a8e5	0.0037942466
47	0xbd0c233d	-0.034213293
48	0xbb825f6e	-0.0039786613
49	0x3b0d948e	0.0021603438
50	0xbb835c8e	-0.004008836
51	0xbd2b2046	-0.041778825
52	0xbb0df627	-0.002166161
53	0x3d160be7	0.036632445
54	0x3a41c0ae	0.0007391077
55	0xbccf496b	-0.025303563
56	0x3c2fd2b9	0.010731393
57	0x3d01057b	0.031499367
58	0xbbb9135c	-0.00564806
59	0x3d074e46	0.03303363
60	0xbcaf4441	-0.02139485
61	0xbd27ca19	-0.04096422
62	0xbc52b788	-0.01286114
63	0xbb564182	-0.0032692854
64	0xbd494da1	-0.0491463
65	0xbc53419f	-0.012894063
66	0xbd35e7d0	-0.044410527
67	0xbcc567e3	-0.024097389
68	0xbd963133	-0.07333603
69	0xbc72772f	-0.014798923
70	0xbb87a6da	-0.0041397633
71	0xbc2939fc	-0.010328766
72	0x3cf6f6fa	0.030147064
73	0xbd2d8310	-0.04236132
74	0xbc53daee	-0.012930615
75	0xbda1e6ad	-0.07905326
76	0xbd94fd68	-0.07274896
77	0x3bd174a1	0.006392077
78	0x3d288b8a	0.0411487
79	0xbd88c2ff	-0.066778176
80	0xbc323dfa	-0.010879034
81	0xbdc3e726	-0.095655724
82	0xbd534f54	-0.051589325
83	0xbd051183	-0.032487404
84	0xbd9ecbe9	-0.077537365
85	0xbd3530d8	-0.044236034
86	0x3b4b433e	0.0031015421
87	0x3bff7f4b	0.007797157
88	0xbcf566a3	-0.029956168
89	0x3caf3f26	0.021392416
90	0xbd06b2a0	-0.032885194
91	0xbbfa1fb1	-0.0076331724
92	0xbbe4ed16	-0.0069862707
93	0xbcbb6ec7	-0.022879971
94	0xbd514a8c	-0.051096484
95	0x3d66d896	0.056358896

weight f4 [96, 48, 4, 4]
0	0x3cab2ec3	0.020896321
1	0xbace795e	-0.0015752723
2	0x3bc033d7	0.005865555
3	0xbc339b9c	-0.010962393
4	0xbc8f96ae	-0.017527904
5	0xbc1afafb	-0.0094592525
6	0x3c8f9b8f	0.01753023
7	0x3c2f28de	0.010690896
8	0xbd2d2d0b	-0.042279284
9	0x3ca1d099	0.019752787
10	0xbd92d830	-0.07170141
11	0xbcf2a7dd	-0.02962106
12	0xbc5d8fa2	-0.013523014
13	0xbc0ca3b4	-0.008583952
14	0x3ca22409	0.019792574
15	0x3ade9e6b	0.0016984468
16	0xbad7610f	-0.0016432124
17	0x3cfa1961	0.03052968
18	0x3d528e4d	0.05140524
19	0x3c2c45c2	0.010514678
20	0x3bbfb767	0.0058507207
21	0x3d19b685	0.03752758
22	0x3c6a12d9	0.01428672
23	0x3b29d48d	0.0025914044
24	0xbb6fd2ab	-0.0036594074
25	0xbc257bc0	-0.010100305
26	0x3c48f155	0.012264569
27	0x3d331baa	0.043727554
28	0xbc243d19	-0.010024332
29	0xbbb22d1d	-0.005437507
30	0x3c99758f	0.018732814
31	0x3c758468	0.014985181
32	0xbd13f94e	-0.036126427
33	0xbbcd93bd	-0.0062737153
34	0x3d020369	0.031741533
35	0x3c4b396f	0.01240383
36	0x3ceb5a58	0.028729603
37	0x3d20552f	0.039143737
38	0x3d02f61b	0.031972986
39	0xbc17fdf6	-0.009276858
40	0x3cbbac92	0.022909436
41	0xbc1663cd	-0.009179068
42	0x39831758	0.0002500366
43	0xbc88942c	-0.016672216
44	0x3aff1084	0.0019459878
45	0x3ca5eb4b	0.020253798
46	0x3c2122cb	0.009834955
47	0x3ca1f211	0.019768747
48	0xbc42b68d	-0.011884344
49	0xbc186544	-0.009301487
50	0x3cbf867e	0.02337956
51	0xbbdb1698	-0.006686043
52	0xbc4258c7	-0.0118619865
53	0xbc7421ba	-0.014900619
54	0x3ce7cde7	0.028296424
55	0x3d2a8da6	0.041638993
56	0xbcd2f01c	-0.025749259
57	0x3c97f302	0.018548492
58	0xbd3d43f3	-0.04620738
59	0x3c0a43c2	0.008439006
60	0xbd2764fc	-0.04086779
61	0xbcd5391c	-0.026028208
62	0xbc12b5c9	-0.008954474
63	0x3c6a1213	0.014286536
64	0x3ccaa442	0.024736527
65	0x3a3c17e4	0.0007175191
66	0x3aaecf25	0.001333688
67	0xbcb0d698	-0.021586701
68	0x3d1382e4	0.0360135
69	0x3c4ae81b	0.01238444
70	0xbc1ae0a3	-0.009452972
71	0x3cb427f6	0.021991711
72	0xbc9b84de	-0.018984254
73	0xbd21df08	-0.03951934
74	0xbcc264ef	-0.02372977
75	0xbd371845	-0.04470088
76	0xbbce6447	-0.006298575
77	0x3cb754fd	0.022379393
78	0x3cfc4ae0	0.030797422
79	0x3cc81b46	0.024427067
80	0x3a9b3c33	0.0011843502
81	0xba4b4b77	-0.00077550806
82	0xbd195789	-0.037436996
83	0x3ca01976	0.01954339
84	0xbd7ae7af	-0.061256107
85	0x3cbd7e7f	0.023131607
86	0xbc9a8c83	-0.01886583
87	0xbccedbb7	-0.025251253
88	0xbcf03e4b	-0.029326579
89	0x3cb02a0c	0.021504425
90	0xbcb9a382	-0.022660974
91	0xbcbbe999	-0.022938536
92	0x3c090c24	0.008364711
93	0xbdba8e84	-0.09109214
94	0x3c490040	0.012268126
95	0xbd1a4439	-0.03766272
96	0x3c97f68c	0.01855018
97	0xbd208eb5	-0.039198596
98	0x3d0240fc	0.031800255
99	0xbc82fa78	-0.015988573
100	0xbd39710a	-0.045273818
101	0xbd334d8c	-0.043775126
102	0x3c9ab685	0.01888586
103	0x3bdb0a6e	0.006684593
104	0xbc9c5c37	-0.01908694
105	0xbbb56342	-0.005535514
106	0xbd0b1554	-0.033955887
107	0x3c9d5d91	0.019209655
108	0xbb90e62c	-0.00442197
109	0xbbd94319	-0.006630313
110	0x3cc196e8	0.023631528
111	0x3b820341	0.003967673
112	0xbb8a95fb	-0.004229305
113	0x3d255070	0.040359914
114	0xbcac2cf9	-0.021017538
115	0x3ca55e7c	0.020186655
116	0xbcd41f98	-0.025893971
117	0x3d65c6fc	0.05609797
118	0x3bf4a3af	0.0074658017
119	0x3d3ebd02	0.04656697
120	0xbc20cc6b	-0.009814362
121	0x3c5193fb	0.012791629
122	0xbcc151b0	-0.023598522
123	0xbcd2547d	-0.025675053
124	0x3b93aa5f	0.004506394
125	0x3c64abde	0.013956992
126	0xbd351d67	-0.044217493
127	0x3c59b13c	0.013286885
128	0x3cc9e02e	0.02464303
129	0xbda7dbe6	-0.08196239
130	0x3ccde3e3	0.025133079
131	0xbd235295	-0.03987368
132	0xbd1e1628	-0.03859535
133	0xbc20c030	-0.009811446
134	0xbc8f3382	-0.017480616
135	0xbbd5cb7b	-0.006524501
136	0x3c6bc149	0.0143893445
137	0x3c5e2717	0.013559124
138	0x3cbcd102	0.023048881
139	0x3d223a45	0.03960635
140	0x3c860218	0.01635842
141	0x3ce51a98	0.027966782
142	0x3cc1d129	0.023659306
143	0xbc183cf1	-0.009291873
144	0x3cf4420b	0.029816648
145	0xbd868e7d	-0.06570146
146	0x3c8e3f28	0.0173641
147	0xbda015db	-0.078166686
148	0x3ba89634	0.0051448587
149	0x3cafe792	0.021472726
150	0x3d142c22	0.0361749
151	0xbc854948	-0.016270295
152	0xbcdb8d6c	-0.026800834
153	0x3c7b572b	0.015340607
154	0x3ccccc53	0.024999773
155	0x3bee4937	0.0072719115
156	0xbccbe621	-0.024890007
157	0x3c0c1660	0.0085502565
158	0x3c80f5a4	0.01574213
159	0xbcaa56ed	-0.020793403
160	0xbb656e67	-0.0035008432
161	0x3c3a341e	0.011364965
162	0x3d44b2c8	0.04802206
163	0xbca219f0	-0.019787759
164	0xbd293465	-0.041309733
165	0xbd2a4fc2	-0.04157997
166	0xbd556621	-0.05209935
167	0xbca1c279	-0.019746052
168	0x3c636afa	0.013880486
169	0xbc06b614	-0.008222122
170	0x3a51c52f	0.00080021
171	0xbd231002	-0.039810188
172	0x3d243371	0.04008812
173	0xbd0536df	-0.032523032
174	0x3cecbda9	0.02889903
175	0x3bd2ccce	0.006433106
176	0xbc9d38db	-0.01919215
177	0x3c650a28	0.013979472
178	0x3bf5337f	0.0074829455
179	0xbcba618d	-0.022751594
180	0x3cc359c3	0.023846513
181	0x3d2521be	0.040315382
182	0x3d1407f0	0.036140382
183	0xbbfa37c8	-0.007636044
184	0xbcbd8477	-0.023134453
185	0x3c88f3ba	0.01671778
186	0xbcdeb683	-0.027186638
187	0x3cbd33dc	0.023096018
188	0xbcb9b3e9	-0.022668796
189	0xbb831345	-0.0040001
190	0xbc827eb4	-0.015929557
191	0x3cbb2ff1	0.022850009
192	0x3c50d143	0.012745204
193	0xbd015807	-0.03157809
194	0x3bcc0597	0.0062262523
195	0x3cee235a	0.029069591
196	0xbd6b4b1e	-0.057444684
197	0x3cfa63af	0.030565111
198	0x3bbb66eb	0.005719056
199	0x3cb699a5	0.02229006
200	0x3d4cd47d	0.050007332
201	0xbcb27248	-0.02178301
202	0x3b9c779b	0.0047750003
203	0xbd1bad22	-0.03800691
204	0xbc9a91c9	-0.018868344
205	0xbbf0613d	-0.0073358105
206	0xbc81ff05	-0.015868673
207	0x3b6bd975	0.0035987769
208	0xbc811db8	-0.015761241
209	0x3c6508d3	0.013979155
210	0xbc8817fb	-0.016612997
211	0x3b797663	0.0038064949
212	0xbc41a382	-0.011818768
213	0x3d2d21be	0.042268507
214	0x3d23635c	0.03988968
215	0xbcd8b0bc	-0.026451461
216	0xbd062078	-0.03274581
217	0x3c921cd1	0.017836006
218	0x3d283057	0.041061725
219	0x3bfbbafc	0.0076822024
220	0xbc365f7e	-0.011131166
221	0xbcc07eb8	-0.023497924
222	0x3d378549	0.044804845
223	0x3ce0d4ce	0.027445223
224	0x3b7f3877	0.0038943568
225	0x3cae59b3	0.021283006
226	0xbc12b64e	-0.008954598
227	0x3bfd5bdc	0.0077318978
228	0x3b4d8b7d	0.003136366
229	0xbcfcf468	-0.03087826
230	0xbd30c1e6	-0.043153666
231	0x3d03743c	0.03209327
232	0x3d07543d	0.03303932
233	0xbb1f4177	-0.0024300495
234	0x3bbf7c5b	0.0058436817
235	0x3c4137b6	0.011793068
236	0x3cb162a6	0.021653485
237	0xbd0677e0	-0.032829165
238	0x3cba4142	0.022736195
239	0xbd0a541a	-0.03377161
240	0x3d33dcc9	0.04391173
241	0x3bc155b0	0.0059001073
242	0x3c3297ce	0.010900451
243	0x3c620916	0.013796112
244	0x3d13f202	0.03611947
245	0x3d09d344	0.033648744
246	0x3bcdccc3	0.006280513
247	0x3cf30f72	0.02967045
248	0xbcb3b4a6	-0.021936726
249	0xbb916d70	-0.004438095
250	0x3c160ccc	0.009158324
251	0xbd1e0a13	-0.038583826
252	0xbd52eabc	-0.05149339
253	0x3cadc1d7	0.021210594
254	0x3ca641a8	0.02029498
255	0x3d020244	0.031740442

bias f4 [48]
0	0xbd480dd2	-0.048841305
1	0x3cec3828	0.028835371
2	0xbca6fba5	-0.020383665
3	0x3cae6536	0.021288496
4	0xbd532b6b	-0.05155508
5	0xbd6c7902	-0.05773259
6	0x3d894c09	0.06703956
7	0xbd288512	-0.04114253
8	0xbaba651a	-0.0014220804
9	0xbd920fe3	-0.071319364
10	0x3d4eaa05	0.050455112
11	0xbd566468	-0.05234185
12	0xbd62fc50	-0.055416405
13	0xbd48a152	-0.048981972
14	0xbcff4556	-0.031160992
15	0xbd58cb66	-0.05292835
16	0xbd7af584	-0.0612693
17	0xbc60a322	-0.013710769
18	0x3c9d98e4	0.019237943
19	0x3cb63f85	0.022247085
20	0xbd877c59	-0.06615514
21	0x3ce5749f	0.02800971
22	0xbc67968a	-0.014135012
23	0x3d540fbb	0.051772814
24	0xbddbf1be	-0.10739468
25	0xbd533c4e	-0.051571183
26	0xbd345254	-0.044023827
27	0xbcb0b9e0	-0.021573007
28	0xbd9761f3	-0.07391729
29	0xbd112fa3	-0.03544582
30	0xbd38c668	-0.04511109
31	0xbcf02f12	-0.02931932
32	0xbca1733f	-0.019708274
33	0xbcc7922c	-0.024361692
34	0x3c90b6f6	0.017665368
35	0x3ccb0603	0.02478314
36	0xbc2b96e6	-0.010472989
37	0xbd06d5a1	-0.032918576
38	0xbbe24579	-0.0069052544
39	0x3cb921bf	0.0225991
40	0xbc07cedc	-0.008289065
41	0x3b89dc32	0.0042071575
42	0xbd7d04fe	-0.06177234
43	0xbc1b28e7	-0.009470201
44	0xbd50a747	-0.050940778
45	0x3ca8696e	0.020558085
46	0xbdb16de3	-0.08663537
47	0xbd4b83f3	-0.049686383

weight f4 [48, 24, 4, 4]
0	0xba819628	-0.0009886669
1	0x3c7783ff	0.015107154
2	0x3ce5d427	0.028055264
3	0x3d183375	0.03715845
4	0xbd37ba04	-0.044855133
5	0x3c9aaea5	0.018882105
6	0x3b9a35ac	0.004706105
7	0x3d79c1ff	0.060976025
8	0x3c39d021	0.011341126
9	0xbc957b7b	-0.018247357
10	0x38168964	3.5890742e-05
11	0xbc99e344	-0.018785127
12	0xbd472fb1	-0.048629466
13	0x3d24a2f4	0.040194467
14	0x3c280baa	0.010256687
15	0x3c218a54	0.00985964
16	0x3d3caac4	0.046061292
17	0xbc50184a	-0.012701103
18	0xbbd08937	-0.0063640135
19	0x3d8d4019	0.06896991
20	0xbb02198f	-0.001985166
21	0xbd227b55	-0.0396684
22	0xbd1c0b09	-0.03809646
23	0x3d45dcee	0.048306398
24	0xbdf18b7c	-0.11794183
25	0xbe1b0ad8	-0.15140855
26	0xbde04b06	-0.109518096
27	0x3cf19e3a	0.029494394
28	0xbb8a62cc	-0.0042232033
29	0xbe1173e7	-0.1420437
30	0xbde06841	-0.10957385
31	0xbe632927	-0.22183667
32	0x3cbeb698	0.023280427
33	0xbbecab6c	-0.0072225835
34	0xbd5a5028	-0.0532991
35	0x3c5227cf	0.012826874
36	0xbce2f56e	-0.02770492
37	0xbc69398d	-0.014234913
38	0xbd2dde1b	-0.042448144
39	0xbd245069	-0.040115748
40	0x3d0bdc2e	0.034145527
41	0xbbd914af	-0.00662478
42	0xbc1c78d4	-0.009550292
43	0x3c820fe9	0.015876727
44	0xbcd535ab	-0.026026567
45	0x3d803d90	0.06261742
46	0xbd44529f	-0.047930356
47	0x3c4d5cfc	0.012534376
48	0x3b91d5e8	0.0044505484
49	0x3d7729a6	0.060342453
50	0x3cde54b0	0.027139992
51	0xbccda981	-0.02510524
52	0x3dfa692b	0.122270904
53	0x3d380f70	0.044936597
54	0x3d17386f	0.036919054
55	0x3dc4fd00	0.096185684
56	0x3d3bc7cb	0.045844834
57	0x3d0aad20	0.03385651
58	0x3da8242d	0.08210025
59	0x3d406616	0.046972357
60	0x3d3cc22c	0.046083614
61	0x3c820597	0.015871806
62	0x3b645005	0.0034837734
63	0xbcd1f5a7	-0.025629831
64	0xbd0943cb	-0.033511918
65	0x3ce899bf	0.028393624
66	0x3d88bf49	0.0667711
67	0x3d8ecf3a	0.06973119
68	0x3d962b5a	0.073324874
69	0x3d0d79fb	0.034540158
70	0x3b880235	0.0041506537
71	0xbc4ce6f6	-0.012506237
72	0x3cb7b446	0.022424828
73	0x3d15ed24	0.036603108
74	0xbb6b583d	-0.0035910748
75	0x3c94321c	0.0180903
76	0xbc313fd8	-0.010818444
77	0x3d380d1a	0.04493437
78	0x3d586de4	0.052839175
79	0x3c8d2388	0.017228857
80	0xbd49ad29	-0.049237404
81	0xbbc7ae97	-0.006093811
82	0xbcc2537a	-0.023721445
83	0x3bb8da8e	0.005641288
84	0x3d467752	0.048453636
85	0x3b88dc1c	0.0041766297
86	0xbadc0d14	-0.0016788566
87	0x3d220d4d	0.039563466
88	0xbbee32a0	-0.0072692186
89	0xb9594774	-0.00020721351
90	0x3b9c6c7d	0.004773675
91	0x3d20c273	0.03924794
92	0xbd050383	-0.032474052
93	0x3d5914c5	0.052998323
94	0x3cf86ddf	0.030325828
95	0x3d1aee0c	0.037824675
96	0x3d38b52d	0.045094658
97	0x3d080355	0.033206303
98	0xbb88c37b	-0.0041736937
99	0xbd087656	-0.03331598
100	0x3cb1e957	0.02171771
101	0xbd0356b8	-0.032065123
102	0xbd050bb6	-0.03248187
103	0xbdd8351f	-0.10557007
104	0x3d016745	0.031592626
105	0x3d8ea0aa	0.06964238
106	0x3d6e8c5e	0.058239333
107	0xbd6f8b87	-0.058482673
108	0x3d3ba8aa	0.045815147
109	0x3cb48875	0.022037724
110	0x3cc294ab	0.023752531
111	0x3c5d1fe8	0.013496377
112	0x3d010418	0.031498045
113	0x3d574bc4	0.05256249
114	0x3db760ce	0.08954011
115	0xbc138be2	-0.009005519
116	0x3ae76355	0.0017653505
117	0x3c4af8b6	0.012388399
118	0x3d33c3bb	0.043887835
119	0x3d2037f7	0.039115872
120	0x3cdd9c74	0.027052142
121	0x3dc918d6	0.0981919
122	0x3da18702	0.07887079
123	0xbb3d9309	-0.002892675
124	0x3ca7899e	0.020451363
125	0x3d3c79ba	0.046014525
126	0x3d14c2f1	0.036318723
127	0x3c8e3760	0.01736039
128	0x3d1bc1b6	0.038026534
129	0xbc907f3b	-0.017638793
130	0xbd1d5ccc	-0.038418576
131	0x3d3cb5dc	0.046071872
132	0x3cafc2aa	0.021455128
133	0x3cf047d6	0.029331129
134	0x3c93b04e	0.018028405
135	0x3d4cfe89	0.05004743
136	0xbcb94fdc	-0.022621088
137	0xbcc64033	-0.024200534
138	0xbcc18dbc	-0.023627155
139	0x3ceee05a	0.029159714
140	0xbc1d23a0	-0.009591013
141	0xbd2dfde0	-0.042478442
142	0x3d4ab0b1	0.049484912
143	0x3d07d7a0	0.03316462
144	0xbc7c68fb	-0.015405889
145	0x3deca245	0.11554388
146	0x3ca3ef22	0.020011488
147	0x3d3cff9c	0.046142206
148	0xbca17baa	-0.019712288
149	0x3d91e37a	0.07123466
150	0x3d303a87	0.043024566
151	0x3cf3e266	0.029771041
152	0x3ceb158f	0.028696803
153	0xbd1405ef	-0.03613847
154	0x3cd7bb72	0.026334498
155	0x3d123ad4	0.035700634
156	0x3ddd09f2	0.107929125
157	0x3d84d72a	0.06486352
158	0x3c81f8b5	0.015865663
159	0xbd1626f4	-0.036658242
160	0x3cd0d12c	0.025490366
161	0xba77d353	-0.0009453792
162	0x3bb64450	0.0055623427
163	0x3d7cf47f	0.061756607
164	0xbd0d7783	-0.034537803
165	0x3cd60e83	0.026129967
166	0x3daa6f68	0.0832203
167	0x3e1def26	0.15423259
168	0x3d1755bc	0.036946997
169	0x3da1130b	0.0786496
170	0xbc511744	-0.012761895
171	0x3c59ff7f	0.013305544
172	0x3ceeb2c8	0.029137984
173	0xbca8c02a	-0.020599443
174	0x3d756a4f	0.059915837
175	0x3d5c3cb3	0.053768825
176	0x3d887f77	0.06664937
177	0x3d5fa404	0.054599777
178	0xbca04ed8	-0.019568846
179	0x3cf27836	0.029598337
180	0xbb4ebdc2	-0.003154621
181	0xbdd88f4d	-0.105742075
182	0xbce67c5e	-0.028135475
183	0x3ce68967	0.02814169
184	0x3cf627cb	0.030048272
185	0x3d311efd	0.043242443
186	0xbd274f39	-0.040847037
187	0xbb14d0bf	-0.002270743
188	0x3d1cdb5c	0.038295135
189	0x3d65c580	0.056096554
190	0xbbea4a2e	-0.007149956
191	0xbda38457	-0.07984226
192	0xbd0235ce	-0.031789593
193	0xbd09dfe4	-0.033660784
194	0x3d2e5c55	0.042568523
195	0xbab84e45	-0.0014061412
196	0x3dc245e9	0.094859906
197	0x3e3b1781	0.18270685
198	0x3e216639	0.15761651
199	0x3e94f829	0.2909558
200	0x3d04d899	0.032433126
201	0xbcb81919	-0.022472905
202	0x3cc211d5	0.023690144
203	0x3d214dba	0.039380766
204	0xbc24955f	-0.0100453785
205	0x3d91ad18	0.07113093
206	0xbbe26df3	-0.0069100796
207	0x3de1af86	0.110198066
208	0xbc8055e2	-0.015665952
209	0xbcc2c6ae	-0.023776378
210	0xbae1ec37	-0.0017236535
211	0x3d387780	0.04503584
212	0xbb6c8b31	-0.0036093707
213	0x3d127eaf	0.035765346
214	0xbb5cb01b	-0.0033674303
215	0xbcfcebcd	-0.030874157
216	0xbc2b4e17	-0.01045563
217	0xbd1b2574	-0.037877515
218	0xbcc06efe	-0.023490425
219	0xbc77f7bb	-0.015134747
220	0xbb38fa89	-0.0028225502
221	0xbc14d875	-0.0090848105
222	0xbd150bc4	-0.036388174
223	0xbd2957b6	-0.041343413
224	0x3d57c6cc	0.05267982
225	0x3e0064f1	0.12538506
226	0x3d7baa1a	0.06144152
227	0xbddab5cf	-0.106792085
228	0xbd899cd2	-0.06719364
229	0xbcf071a9	-0.029351072
230	0xbdb217b1	-0.08695925
231	0x3aba60c4	0.0014219512
232	0xbdaa26a8	-0.08308154
233	0xbdb9f9b0	-0.09080827
234	0xbd27f95e	-0.0410093
235	0xbdeab942	-0.114611164
236	0xbcd7e092	-0.0263522
237	0x3de34358	0.11096829
238	0xbc70e769	-0.01470361
239	0xbcfbb93e	-0.030727979
240	0x3c41fcc1	0.011840046
241	0x3d4e5476	0.050373517
242	0x3d97ac1a	0.07405873
243	0x3d3dfffc	0.046386704
244	0xbcc70347	-0.024293555
245	0xbd45f6a2	-0.04833091
246	0xbce86eea	-0.0283732
247	0x3d219e5c	0.039457664
248	0x3cf5c31c	0.030000262
249	0xbb865644	-0.004099639
250	0x3d6663c0	0.056247473
251	0x3c4ca764	0.012491081
252	0x3b1a1b2c	0.002351473
253	0x3c529a26	0.012854135
254	0xbd6162a5	-0.055025715
255	0xbd8942a3	-0.06702163

bias f4 [24]
0	0x3d8a0163	0.06738546
1	0x3d32ea22	0.043680318
2	0xbdd97fdc	-0.1062009
3	0x3c621b74	0.013800491
4	0xbd193ec3	-0.03741337
5	0xbc5452ba	-0.012959177
6	0xbd254a68	-0.040354162
7	0x3a980a0b	0.0011599673
8	0x3c571ea2	0.013129862
9	0xbd39b4b4	-0.045338348
10	0x3cc0839e	0.02350026
11	0x3b10de19	0.0022105037
12	0xbdd0ae77	-0.101895265
13	0xbd3ab3df	-0.045581695
14	0xbd8a6b56	-0.06758754
15	0xbdd84690	-0.10560334
16	0xbc777bb2	-0.015105175
17	0x3d33ee8b	0.043928664
18	0xbbf4d035	-0.0074711093
19	0x3d330f1c	0.04371558
20	0xbd51fd34	-0.051266864
21	0xbdc297c9	-0.09501607
22	0xbc191035	-0.009342243
23	0xbd1cebc0	-0.038310766
